models/05_TinyVGG_from_script_model.pt (torch, 36766 bytes, 10 tensors)

conv_block_1.0.weight f4 [10, 3, 3, 3]
000000 b9 8c 8c 3d 42 fd 9c 3c d9 9e 93 3c 62 8c 8f bd
       0.06862778 0.019163731 0.01802008 -0.07009198
000010 27 b9 2a bd 9b 18 d2 bc 51 14 15 be 61 e3 cd 3d
       -0.04168048 -0.025646498 -0.14558531 0.10053135
000020 68 0f 02 ba fa 19 ef bd af 55 64 3d a6 9d 17 be
       -0.0004961402 -0.116748765 0.055745777 -0.14806232
000030 a9 a1 0f 3d 4d 9c 7f bc a1 a5 17 be de 00 20 be
       0.03506628 -0.01560123 -0.14809276 -0.15625331
000040 5f 8d 47 3d fa 97 09 3e b2 5d b4 3d a3 5d 46 bd
       0.048718806 0.1343688 0.088069335 -0.048429143
000050 5c f6 3d 3d 63 55 8d 3b 42 f8 d6 3d 70 01 3f 3e
       0.046377525 0.0043131574 0.1049657 0.18652892
000060 c8 e4 08 be 0d 2f 1b be a4 60 b0 bc 1f 7a ce b9
       -0.13368523 -0.15154667 -0.021530457 -0.0003938237
000070 1f 27 e6 bb 65 d1 31 be c6 12 43 bd 89 e4 d2 3d
       -0.0070237066 -0.17365034 -0.047625326 0.10297496
000080 96 fd 8e bc 3e 4b 32 3e 82 20 03 3e cd 80 e9 3d
       -0.017454904 0.17411515 0.1280537 0.1140152
000090 a7 72 08 3e 29 58 32 be 0e ad c8 3d 8f 2e 8e 3d
       0.13324986 -0.17416443 0.097986326 0.06942474
0000a0 99 74 0a be df 13 c5 bd 3a d3 0a 3d 7b 43 10 bd
       -0.13521041 -0.09622931 0.033892848 -0.035220604
0000b0 e4 38 c1 bc 6e bf f9 bd b8 ed 19 be 34 a7 bf 3d
       -0.023586698 -0.121947154 -0.15032089 0.09358063
0000c0 36 45 60 3d ca 8e 4b 3d d0 50 39 be bd cd b9 bd
       0.054753505 0.04969672 -0.18097234 -0.090724446
0000d0 59 d7 08 be 4f b4 d6 bd 48 89 1e be 59 d1 b2 bd
       -0.13363399 -0.1048361 -0.15482056 -0.08731336
0000e0 af d7 b1 3d 5d 15 c8 3d 3a fe 1a be 9c af 9f 3c
       0.086837165 0.097697 -0.15136042 0.019492917
0000f0 3f 4b 20 be 1b 8c 3b be 86 56 40 be 0e f3 2d be
       -0.15653704 -0.18315165 -0.18783006 -0.1698725
000100 53 6f b9 bd f6 ab 01 3e 30 be cf 3d a0 df e6 3d
       -0.090544365 0.12663254 0.10143697 0.11273122
000110 20 e1 38 bd c9 d6 25 be 0c 37 23 be 0b e6 1c 3e
       -0.04513657 -0.16195215 -0.15938967 0.1532213
000120 cc 81 a6 3d c5 32 35 3c a4 4d 68 3d 4d b0 a8 bd
       0.081302255 0.011059468 0.05671467 -0.08236752
000130 50 8e 1d 3e 02 f5 d6 3b 1c a0 92 3d c1 cd c2 bd
       0.15386319 0.006559969 0.07159445 -0.09511901
000140 cd b0 22 3e 05 67 54 bd a2 b9 71 3d 16 cc 6e 3d
       0.15887757 -0.05185606 0.059014924 0.0583001
000150 96 29 81 bd 42 c5 16 3e ad d0 fc 3d 9a 79 aa 3d
       -0.0630676 0.14723685 0.12344489 0.08323975
000160 60 79 4b bd ee 16 3d bd a8 a3 35 3e d2 c8 07 be
       -0.0496763 -0.046164446 0.17738211 -0.132602
000170 85 9e ab 3d 3a 55 b1 bd df 19 4d 3d 87 2a 3b be
       0.083798446 -0.08658834 0.0500735 -0.18277942
000180 21 03 2a bd df 09 b6 bd 58 ba 02 bd 3a a8 6c 3d
       -0.04150689 -0.088886015 -0.031915992 0.05777762
000190 32 8f 88 bd d1 c8 87 bd b3 b7 45 be 0b 7f f3 3d
       -0.06667937 -0.066300996 -0.19308357 0.11889466
0001a0 b1 a5 25 3d cc 43 c4 3d 41 02 3b be f5 bb 4e bd
       0.04044122 0.09583244 -0.18262579 -0.05047222
0001b0 f5 4f 28 3d 54 8e 40 3e 4c f2 e7 bd 98 d2 de bd
       0.041091878 0.18804294 -0.11325511 -0.10880011
0001c0 ca 71 a1 3d ee a5 c0 bc d9 98 45 bd d1 63 a9 bd
       0.07883032 -0.023516621 -0.04824147 -0.082709916
0001d0 b6 c6 18 3d 36 b1 44 3e 7c 31 1d 3c 43 92 1a 3e
       0.03729888 0.19208226 0.0095943175 0.15094857
0001e0 bb 17 32 bd 7b 14 5f 3d 78 77 d0 3d 3e 45 0e 3d
       -0.043479662 0.05446289 0.10179037 0.034734003
0001f0 24 c1 0c bc d7 9a 0f 3e 5f 9b 25 3e 6e 52 0f be
       -0.00859097 0.1402391 0.1617255 -0.13996288
000200 6b 26 06 be 14 09 1a be 72 55 e3 bd 31 9b 06 3d
       -0.13100593 -0.15042526 -0.11100282 0.032862846
000210 ca 18 41 3e a3 e9 30 be 78 cb 86 3d 03 58 26 3e
       0.18857113 -0.17276625 0.06581777 0.16244511
000220 b3 fd 09 be 61 ed 17 be 55 19 07 3e 87 3b aa 3c
       -0.13475685 -0.14836647 0.13193257 0.020780338
000230 84 8a df 3d fb d6 dd 3c 1d 41 02 be 1a cc 12 be
       0.10915092 0.02708005 -0.12720151 -0.14335671
000240 eb bc 29 3e df 0a e4 bd 72 7f 17 3d c6 9e c0 bd
       0.16575973 -0.11134886 0.036986776 -0.09405284
000250 ac 5b da 3d 90 d2 aa 3d 3b fa de 3d f2 f3 3e be
       0.10662016 0.08340943 0.108875714 -0.18647745
000260 85 7d 88 bd 66 57 57 bd c2 27 ba bc 0f 2c 85 bc
       -0.06664566 -0.052573584 -0.022724036 -0.01625636
000270 d3 4b 1b 3e c3 5c 0b bd 4a 79 28 3e 9d 52 91 bd
       0.15165643 -0.03402401 0.16452518 -0.07095835
000280 dd 72 07 be a7 cc 94 3d 90 0b 02 be 6e 0a d7 3b
       -0.1322741 0.07265597 -0.12699723 0.0065625226
000290 c4 1f 39 3d df e4 3a be 0b 10 4c 3c 93 a8 45 be
       0.04519631 -0.1825137 0.012454997 -0.19302587
0002a0 18 69 0b 3e da d2 74 3d 5f 82 f7 bd 2a 73 6a bd
       0.13614309 0.059771396 -0.12085413 -0.057238735
0002b0 d5 a7 95 bd ce 60 2b be d8 11 be bd 11 cb a7 bd
       -0.07307402 -0.16736147 -0.09280747 -0.08193029
0002c0 39 0c 2c 3d 0a f0 e8 3d f0 67 37 be 3c 33 35 3e
       0.042003844 0.11373909 -0.17910743 0.17695326
0002d0 47 65 e4 3d 20 57 b7 bd fa b9 35 be f7 a1 2b be
       0.111521296 -0.08952165 -0.17746726 -0.16761003
0002e0 8d 1a 83 3d 4d 4c 1b bd a4 81 ef 3c 76 c8 2d be
       0.064015485 -0.037914563 0.029236622 -0.16971001
0002f0 99 76 b6 bc 53 55 99 bc cf 98 1d be 05 36 86 3b
       -0.022273349 -0.018717444 -0.15390323 0.004095795
000300 d7 8a 15 be 39 2a 22 3e 33 eb 61 bd f3 b7 1f 3e
       -0.14603744 0.15836419 -0.055155944 0.15597515
000310 bb 42 39 3e ac 65 6c bd 71 b2 40 3e aa f6 c5 3d
       0.18091862 -0.05771415 0.1881807 0.09666188
000320 24 45 1d 3e 44 db ff bd ff 4e 30 be fc 23 e3 3d
       0.15358406 -0.124929935 -0.17217635 0.11090848
000330 cc 19 93 bd 8d 75 08 be 11 4d 24 be 50 11 2a 3e
       -0.07182655 -0.13326092 -0.16045024 0.16608167
000340 9d c6 bd 3d b8 f6 29 be ec 64 14 3d 69 c7 0e 3e
       0.09266398 -0.16598022 0.03622906 0.13943256
000350 62 67 21 3d 6c fb aa bd 28 ab 88 3c 5a b6 e9 bc
       0.039405234 -0.08348736 0.016683176 -0.028529335
000360 ef 32 85 3b cc 15 cc bc ec 7a 22 3e a3 92 83 bd
       0.0040649096 -0.024912737 0.15867203 -0.06424453
000370 d8 6b e2 3d 17 92 d2 3d fa c6 30 3e b5 0a 55 bd
       0.11055726 0.10281771 0.17263404 -0.052012164
000380 12 6d b9 3c b8 9f 12 be b0 75 f5 bd 86 4d 39 3e
       0.022635017 -0.1431874 -0.11985338 0.18095979
000390 43 40 c8 3d 4a ae be bd ae dc aa 3d 1f ac 38 3e
       0.09777882 -0.09310587 0.083428726 0.18034409
0003a0 73 1e 1d be 50 88 86 3b 8e 85 04 3e 08 3f 38 3e
       -0.15343647 0.004105605 0.12941572 0.17992795
0003b0 bb 67 0f 3e 8b 25 c7 3d 4a 2d 49 3e 09 a5 84 bd
       0.14004414 0.09723958 0.19646183 -0.064767905
0003c0 e8 95 a5 3d c9 ea a6 3d ad 46 2a bd 71 a7 cc bc
       0.08085233 0.081502505 -0.041571308 -0.024982186
0003d0 a2 ff f1 bd 28 33 ed 3c d8 45 c9 bd e2 37 34 3b
       -0.11816336 0.028955057 -0.09827775 0.002749913
0003e0 82 fa 8b ba cb 5a 3c be 91 f2 8e bd 86 b5 80 bd
       -0.0010679516 -0.1839401 -0.069798596 -0.06284623
0003f0 d4 b0 33 3e 61 28 9c bd 1d e5 bd bd 16 f3 f8 bd
       0.17547923 -0.07624889 -0.092722155 -0.1215574

conv_block_1.0.bias f4 [10]
000000 86 22 0b be d9 b9 cc 3d 56 01 2e be 4e d5 fe bd
       -0.13587388 0.09996385 -0.16992697 -0.124430284
000010 a1 58 1d 3e bb a7 78 3d b4 3b 5e bd ac cb e0 3d
       0.1536584 0.060706835 -0.054256156 0.10976347
000020 92 0c 2f 3e 32 3e d8 3c
       0.17094639 0.026396845

conv_block_1.2.weight f4 [10, 10, 3, 3]
000000 72 9b dd bc aa de cf bd cf c4 bd bd 0c 03 29 3d
       -0.027051661 -0.10149892 -0.09266054 0.04126267
000010 b9 bf f5 bb ad 79 a0 3d 40 c5 12 bd 75 3a 85 bc
       -0.0074996618 0.07835708 -0.035832644 -0.016263226
000020 d0 29 29 bd 26 fc f9 3c 67 53 d7 bd ea af 3a bd
       -0.04129964 0.030515742 -0.105139546 -0.04557792
000030 96 83 d4 3d 37 f1 90 bd 69 36 2a bb 5f 18 70 bd
       0.103766605 -0.07077258 -0.0025972372 -0.058616992
000040 cc c2 76 3d d2 fb 42 3d dc 0f 8c 3d b6 c9 3f bd
       0.060244367 0.047603436 0.068389624 -0.046823226
000050 ab d9 9d bd ff 41 4f bd 83 35 97 bd 33 97 b8 bd
       -0.077075325 -0.05060005 -0.073832534 -0.09013214
000060 7e 18 fb bc 41 0f 7b 3d c7 be f9 bc 19 62 77 3c
       -0.030651327 0.061293844 -0.030486478 0.015099072
000070 c9 1d 93 3d 5f 51 74 bd 44 14 a6 bd 25 2a a3 bd
       0.071834154 -0.059647914 -0.08109334 -0.07967023
000080 f2 67 54 bd 75 bd b3 3d 07 4f 99 bd f4 62 7a bd
       -0.051856942 0.087763704 -0.074857764 -0.061129525
000090 a9 53 30 bd 03 b2 0f 3d 68 22 b2 3c 12 be 06 bd
       -0.043048535 0.035081875 0.021744922 -0.03289611
0000a0 a4 20 46 bd 06 5b c2 bc 46 79 07 3d 49 61 d4 bd
       -0.048370972 -0.023725044 0.03307464 -0.10370118
0000b0 2b cb b2 bd ca 50 40 bd 9b 9c 06 bd f2 3a 46 3d
       -0.087301575 -0.046952046 -0.032864194 0.04839606
0000c0 6e 93 77 3d b6 f4 31 bd 60 2a c4 bc 7b ba a4 3d
       0.060443334 -0.043446265 -0.023945987 0.08043381
0000d0 a0 b5 93 bd 23 4f 5f 3c 35 be bc 3c 8b 3b 84 bd
       -0.072123766 0.0136297075 0.023039917 -0.064566694
0000e0 39 6d 25 b9 bf 23 f1 3c 27 f0 08 3d c3 fe 86 3d
       -0.00015776315 0.02943599 0.033432152 0.06591561
0000f0 48 76 36 bd 6f c0 04 bd 70 6a 15 bc 49 d0 99 3c
       -0.044546396 -0.03241008 -0.009119615 0.018776076
000100 9b 9d 61 bd 81 db 30 3d 68 7f c8 3a e4 f9 89 bd
       -0.055081945 0.043178085 0.0015296759 -0.06737116
000110 6d 46 9b 3d 07 fb b2 3d c7 cd 31 bd fb 7b b0 3d
       0.07581792 0.08739286 -0.043409135 0.086173974
000120 15 9f c8 3d 92 4a cd bd 5f 94 63 3d 3d 5b bb bd
       0.097959675 -0.10023989 0.05556142 -0.09148262
000130 35 46 80 bd fc b4 21 3c 23 e1 02 3d 5b e1 89 bd
       -0.06263391 0.00986981 0.03195299 -0.06732436
000140 6d f4 71 3d 99 be a6 3c ab 3c 59 bd 34 43 86 bd
       0.059070993 0.020354556 -0.053036373 -0.06555787
000150 4c f6 86 3d 77 be d6 bc eb c1 a3 3d 66 a1 b7 bd
       0.06589946 -0.026213868 0.07995971 -0.08966331
000160 9a f0 33 bd 7b e8 da bd ed 50 c8 3d a8 01 bb bd
       -0.043930627 -0.106888734 0.0978106 -0.09131175
000170 7c 3b 23 bd b1 38 03 bd 09 2b 15 bc 74 48 71 3d
       -0.03985165 -0.032036487 -0.009104499 0.058906987
000180 63 55 0b bd 1c 13 99 bd 26 80 1d 3c 25 b9 8e bd
       -0.034016978 -0.07474348 0.0096130725 -0.06968907
000190 fd 3d df 3d 34 51 c0 3d d6 2e 84 3d a3 7d fb 3c
       0.10900495 0.09390488 0.06454246 0.030699557
0001a0 72 a7 b3 3d aa 4f b6 bd 57 08 99 bd 61 00 a2 bd
       0.08772172 -0.089019135 -0.07472294 -0.079102285
0001b0 41 b9 b5 3d be 40 05 3d 14 1e 79 3b 74 02 0f 3d
       0.08873225 0.032532446 0.0038012313 0.03491445
0001c0 a5 dd 39 bd 14 72 b2 3d ff d4 d4 3d 05 ed c1 bb
       -0.045377392 0.08713165 0.10392188 -0.0059181475
0001d0 c4 63 5d bc 44 a5 aa 3d 20 5a 2c bd 8b c8 6f 3d
       -0.0135125555 0.08332303 -0.042078137 0.058540862
0001e0 d4 e8 c2 bc c6 fd 36 bd b0 ff 92 3d b2 cf c0 3d
       -0.023792662 -0.04467561 0.07177675 0.09414615
0001f0 14 c4 a2 3d cb fb e3 3d f2 75 12 3d bd 85 cd bd
       0.07947555 0.1113201 0.035757013 -0.10035274
000200 e2 04 8f 3d cc 2c 3e bd d4 27 17 3d 05 c5 34 3d
       0.06983353 -0.04642944 0.036903217 0.044133205
000210 4a 49 33 3d c8 58 af 3d df df 8b bd 66 24 85 bd
       0.043771066 0.085618556 -0.068298094 -0.06501083
000220 f2 e6 4c bd f6 37 be bd 09 80 cb bd 12 10 93 b8
       -0.050024934 -0.092880175 -0.0993653 -7.0124996e-05
000230 87 f5 60 ba 27 0b a9 3d 86 cf a8 3c fa d5 d7 3c
       -0.00085815083 0.0825408 0.020606767 0.02634715
000240 58 aa 12 3d a2 77 0a bc 94 b9 69 3d 0a f5 b0 bd
       0.035806984 -0.008451374 0.057061747 -0.086404875
000250 21 c9 c1 bd ae 73 85 3d 5d 49 d5 3b fc bd 80 bd
       -0.094621904 0.06516205 0.0065089897 -0.06286237
000260 5d c3 d3 3d 4f 9a 80 3c 88 99 2f bd 56 40 e4 bb
       0.10339997 0.01569858 -0.04287103 -0.0069656773
000270 1c ca 6c 3d ff 6a 9a 3b 49 a6 ba 3c d5 74 3d bd
       0.057809934 0.004712462 0.022784369 -0.046253998
000280 6d 5a 32 3d d0 f0 82 bd 32 af 61 3d 49 9c 4c 3d
       0.043543268 -0.063935876 0.05509872 0.049953733
000290 81 d7 41 3c 16 40 a0 bd 50 1a 85 3d 92 31 58 bb
       0.011831165 -0.078247234 0.06499159 -0.003298853
0002a0 cb 14 45 3d e3 a5 c0 bd c7 d1 8d bd 21 dd 28 bc
       0.048115533 -0.094066404 -0.069247775 -0.0103066275
0002b0 9e ea cb 3c f4 ee 72 3d 64 9c f3 3c af de 27 bd
       0.024892148 0.059309915 0.029737659 -0.040983852
0002c0 c8 5b 95 3d b9 e1 a0 3d 62 7a 2a 3d be 86 a6 bd
       0.072928965 0.07855553 0.04162062 -0.08131169
0002d0 d9 6b d1 bd 01 09 ba bd 2b 01 7a 3d 38 96 ac 3d
       -0.102256484 -0.090837486 0.06103627 0.084270895
0002e0 fb bd a6 bc 9d 5b b0 3d 50 b6 c3 3d 14 2c 89 3d
       -0.020354262 0.08611224 0.09556258 0.0669786
0002f0 a9 78 5f bc b6 68 b2 3d e2 c8 82 3d ed 3f cf bd
       -0.0136396075 0.08711378 0.063859716 -0.10119615
000300 08 21 b2 bd c6 c6 44 bd 4d 6a c2 3d 12 c5 e2 bd
       -0.086977065 -0.048041128 0.094929315 -0.110727444
000310 01 97 c4 ba 7b 09 6e 3c d4 a9 e9 bc 2d d2 26 bd
       -0.0014998616 0.0145286275 -0.028523363 -0.040727783
000320 b1 26 24 3d 66 20 94 3d 8e d3 06 3d 68 b6 af bd
       0.04007596 0.07232742 0.032916598 -0.08579713
000330 10 17 15 bd 3b dd f1 bc f0 60 93 3d cb 83 03 bd
       -0.036398947 -0.029524436 0.07196224 -0.03210811
000340 e8 5e b3 bc f3 14 d0 bd c7 5c aa bd d8 24 da bd
       -0.02189584 -0.10160246 -0.08318477 -0.10651559
000350 2e 3a bb 3d 79 a4 ab 3c b3 d2 74 bd 0d bd 7b bd
       0.09141956 0.02095245 -0.05977125 -0.06145959
000360 c5 bf 3c 3c c1 f1 73 3c 4e 2d dd bd ad 33 0b 3d
       0.011520331 0.014889182 -0.10799657 0.03398483
000370 21 4d f3 3c ad cd de bd ea 56 76 3d fd a2 d3 bc
       0.029699864 -0.10879073 0.06014148 -0.025834555
000380 40 ff 83 bd 54 d7 22 3d 23 ab d8 3c 92 c4 7d 3c
       -0.064451694 0.039756134 0.026448792 0.015488761
000390 13 cc dc bd de e1 e7 bc 46 65 df bc 36 ff a4 bd
       -0.107811116 -0.028305944 -0.02726997 -0.0805649
0003a0 fe 4f bd 3d b2 08 7c 3d 8a 25 a1 3d e3 5e c7 bd
       0.09243773 0.06153173 0.07868488 -0.09734895
0003b0 67 5f bf 3c d1 c0 77 bd ca 10 c7 bc 3d 47 7a bd
       0.023360921 -0.06048662 -0.024299998 -0.061103094
0003c0 cf 88 a3 bd dc ed b9 bd 05 a4 6a bd 7c 4e a9 bc
       -0.079850785 -0.09078571 -0.057285327 -0.020667307
0003d0 f4 46 4c 3d a5 bb a2 3d 70 73 9c 3d 63 3e 58 3d
       0.049872354 0.079459466 0.076392055 0.05279387
0003e0 b1 c2 23 bb fb c0 99 3d b3 11 5b bd 08 63 19 bd
       -0.0024987871 0.07507511 -0.053483676 -0.03744796
0003f0 20 29 a6 ba 2d 82 6b bd b8 b7 dd 3b a6 5f b0 bd
       -0.0012677051 -0.057497192 0.0067662857 -0.086119935

conv_block_1.2.bias f4 [10]
000000 6c 78 31 3b 69 29 2d bd 9b 76 bf bd 1f ec 17 bd
       0.0027079834 -0.04227582 -0.09348794 -0.037090417
000010 11 0b d3 3d 9b bd 71 3d 90 8e 06 3c 7f bb c0 3d
       0.10304845 0.059018712 0.0082127005 0.09410762
000020 86 f6 d1 bd 0e b4 bc 3d
       -0.10252099 0.0921403

conv_block_2.0.weight f4 [10, 10, 3, 3]
000000 3c 7d c0 3d 8b 1d 90 3d df f2 72 bd 6b d1 65 bd
       0.093988866 0.07036885 -0.05931365 -0.05610792
000010 6b 74 92 3d 6f ba a3 bc ee a4 5e bd c6 9c d0 bd
       0.07151111 -0.01998636 -0.054356508 -0.10186152
000020 82 84 c5 3d 3a 94 a4 bd 1f 57 d2 bd bc 07 9e bb
       0.096444145 -0.080360845 -0.10270523 -0.0048226994
000030 5f 29 c5 bd 67 43 90 3b e4 e8 86 bd 0a 47 99 bb
       -0.096270315 0.0044025662 -0.06587389 -0.004677658
000040 22 0a 25 3c 1a b0 b7 3d 9c 98 8e 3d 1f e0 ac 3d
       0.010073217 0.089691356 0.06962702 0.08441185
000050 58 f2 26 bd 4c 65 53 3b fb e4 03 3d f3 ed a9 bd
       -0.04075846 0.0032256423 0.032200795 -0.08297338
000060 dc 21 48 bd fe 2b bb bd 81 c2 7a bd 99 8a d8 3c
       -0.048860416 -0.0913925 -0.06122065 0.026433276
000070 57 89 d2 bd 99 2d bd 3d 73 22 bf bd c6 9b 87 bc
       -0.10280102 0.09237213 -0.093327425 -0.01655377
000080 27 11 95 bc 58 ba 03 3d 93 25 e3 bc b5 1e a8 3c
       -0.018196655 0.032160133 -0.027727878 0.020522455
000090 9d d4 59 3d b7 7c db 3d 0c c7 ce 3d 1c a1 c4 3d
       0.05318128 0.10717147 0.10096559 0.09601042
0000a0 53 1e a2 bd ad 1c 98 bd 74 a7 68 bc c9 39 e3 3d
       -0.0791594 -0.074273445 -0.01420008 0.11095006
0000b0 8d 97 26 3d f8 3d cf 3d 5e 8f 7d 3d bb f3 d7 3c
       0.040671874 0.101192415 0.061904304 0.026361337
0000c0 11 c7 9c bd 4f 93 50 3d 16 c8 50 3d f3 ce 97 3d
       -0.076551564 0.050921734 0.050972067 0.07412519
0000d0 4b 67 d8 3c c5 5f 81 3d 51 50 67 3d 32 f3 68 3d
       0.026416441 0.06317095 0.05647308 0.056872554
0000e0 14 7d 4f bd c7 da ce bd 40 e1 5d bd 0a 7c 3c bd
       -0.050656393 -0.10100322 -0.054169893 -0.04601673
0000f0 37 98 1b bd 22 ee 79 3d a1 e8 a2 bc 3a 5d 6c 3c
       -0.03798696 0.061018117 -0.019886317 0.014426524
000100 71 8d 1b bb ff 14 97 bd 7d 30 dc 3d b1 3f 7d 3c
       -0.0023735429 -0.073770516 0.10751436 0.01545708
000110 86 e6 78 bd ac a1 a8 3d 23 d2 ad bd 70 e8 81 3d
       -0.06076672 0.082339615 -0.08487346 0.06343162
000120 35 f9 89 3c 83 e3 0f bd af 05 36 3d 7f 55 1e 3c
       0.016842464 -0.03512908 0.044439014 0.009663939
000130 93 93 62 bd ee 95 6f bd 71 77 fe 3c 4d 3a 18 3d
       -0.05531652 -0.058492593 0.031062813 0.037164975
000140 3e 24 6d 3d e1 c1 b7 bc 9b 28 87 bd 3d ac ab 3d
       0.05789589 -0.022431316 -0.06599542 0.08382461
000150 3a 5d d1 bd 10 ce a0 bc d6 36 60 3d 6b d2 bd bb
       -0.1022286 -0.019629508 0.054739796 -0.005792906
000160 5a 63 ea bc 72 15 8b 3c 9e 6a a1 3d eb 6e 18 3d
       -0.028611828 0.016978 0.07881664 0.037215155
000170 9b 07 f7 ba 08 e5 dd 3c a6 91 bb 3d 4d 6a 9b 3d
       -0.0018846871 0.02708675 0.091586396 0.07588635
000180 96 2a 42 3d 5b e2 cc bc 42 18 85 3d 30 fc 1b bb
       0.047403894 -0.025010278 0.064987674 -0.0023801439
000190 7d d9 8b bc 69 23 55 39 2b 9a c0 bd cc 90 a5 3d
       -0.01707148 0.00020326454 -0.09404405 0.080842584
0001a0 28 c5 31 bc e0 72 8f bd 47 8c 28 3c 33 7d c7 3d
       -0.010850228 -0.070043325 0.010287351 0.09740677
0001b0 8c d2 a4 bd e3 72 81 3d 11 28 42 3d 9d 1a 99 3d
       -0.08047971 0.06320741 0.04740149 0.07475779
0001c0 cb f5 c7 3d a0 7a c6 bd d9 2f 1d bd 3f d7 df 3c
       0.09763678 -0.096913576 -0.03837571 0.027324317
0001d0 55 e4 7d bc 34 cf 8b 3d 50 6a 00 bd 01 98 23 bd
       -0.015496333 0.0682663 -0.031351388 -0.039939884
0001e0 8d 4c 8e bd 24 96 a7 bd 56 ce 1f 3d 03 68 91 bd
       -0.06948195 -0.08182934 0.039015137 -0.07099917
0001f0 8d 10 ce bb f9 04 09 bd 75 8f ff bc cc c1 49 bd
       -0.006288594 -0.033452008 -0.031196335 -0.049257085
000200 5a 0b 16 bd 40 d2 16 3d aa 31 52 bc 31 18 9f bc
       -0.03663192 0.036821604 -0.012829224 -0.019420715
000210 07 73 0c bd e6 9d 87 bd 52 20 c1 3c 0b e2 80 bd
       -0.034289386 -0.066219136 0.023574982 -0.06293114
000220 ea 10 a7 3d 01 5d 98 3d b0 73 16 3d af f3 8d bd
       0.08157523 0.07439614 0.036731422 -0.069312446
000230 a0 3b b2 3d a8 32 20 3c 69 1a ac 3d 0d f6 51 3c
       0.08702779 0.009777702 0.08403475 0.012815011
000240 00 e2 cb bc 40 d0 87 3d b9 52 bb 3d 1b d1 33 3d
       -0.024888039 0.066315174 0.091466375 0.04390059
000250 7f c5 84 bd 1f 84 d6 bd e1 c3 b6 ba 58 9f c4 bb
       -0.06482982 -0.10474419 -0.0013943875 -0.0060004406
000260 85 ce a7 bd f4 c1 82 3c 53 f3 ca 3b b8 f5 c3 3d
       -0.08193687 0.015961625 0.0061935573 0.095683515
000270 fd ba 0a 3d 1b 7c 1a 3d 03 5a c3 3c 9c fd 9a 3c
       0.033869732 0.037716012 0.023846632 0.018919758
000280 fa 98 26 3b f7 e8 b0 3d a7 d4 86 3c 8b 9f 9b 3d
       0.002542077 0.086381845 0.016458822 0.0759879
000290 77 7a ab 3d 41 b3 ca 3d 91 05 97 3d 0e 4c c3 3d
       0.08372968 0.09897471 0.073741086 0.09535991
0002a0 8f 76 b6 3d 9d c5 c0 3d 7d a9 9e bd 34 db 59 bc
       0.08909332 0.09412692 -0.07747171 -0.013296891
0002b0 6e 71 c6 bc 74 8f a5 3d af 14 c8 3d cb 8b 96 3d
       -0.02422401 0.08084002 0.0976957 0.07350882
0002c0 ec 1e ac bd 19 a5 a1 bd 89 fa 1b bb 7c 99 2f 3d
       -0.084043354 -0.07892818 -0.0023800454 0.042870983
0002d0 ec 2f 1d 3d f2 0b 30 3d 31 42 9e ba c2 c6 15 3d
       0.03837578 0.042980142 -0.001207417 0.036566503
0002e0 e6 2a dc bc 96 8c 45 bc ca 1d a7 bb 0a c0 bb 3c
       -0.026875924 -0.012057444 -0.0050999867 0.02291872
0002f0 45 13 da 3c a3 fa 2f 3d 3c b8 e3 bb 97 05 b3 bd
       0.026620517 0.042963635 -0.0069494527 -0.087413006
000300 fc cf d6 3d 32 44 63 3d b1 53 92 bd 7a 30 c0 bd
       0.104888886 0.055484958 -0.07144869 -0.09384246
000310 9e df cd bd dc 42 07 3b ae ae a4 3d 14 ab 27 bd
       -0.10052417 0.0020639217 0.0804113 -0.040934637
000320 21 33 95 3c 91 5e 5a bd 0d 1f ce 3c 42 26 bb bd
       0.018212857 -0.05331284 0.02516129 -0.091381565
000330 87 ee 2c bd 7e f2 99 3d 2e d0 b9 bd 7d 6d 18 bb
       -0.042219665 0.07516955 -0.0907291 -0.002325862
000340 3a 70 de 3d 2a 2e 54 bd 8a 59 9e 3c 1f 79 63 3d
       0.10861249 -0.051801838 0.019329805 0.055535432
000350 71 09 c5 3d 93 f8 4a 3c 64 40 d2 bb 95 10 7c bc
       0.096209414 0.012388366 -0.0064163674 -0.015384813
000360 8c f8 86 bd e2 7e ea bd f4 e9 84 bc 0a e3 b3 bd
       -0.06590375 -0.11449982 -0.016224839 -0.08783539
000370 fa 69 c7 bd 06 5a 39 3b ee b5 c0 3b 94 e5 9c bd
       -0.0973701 0.0028282418 0.0058810627 -0.07660976
000380 0e 86 07 3d 61 11 9f 3d a2 f1 a1 bd 96 79 c6 bc
       0.03308683 0.07766987 -0.07907416 -0.024227899
000390 86 54 9e bd 98 4b a6 bc 8a e9 d5 bd 5e 39 08 bd
       -0.07730965 -0.020299718 -0.10444935 -0.033257835
0003a0 e9 00 c3 3d 96 76 04 3d 13 b4 32 bd 84 b4 db bd
       0.09521658 0.032339655 -0.043628763 -0.1072779
0003b0 e9 7d ad bd 6d 67 52 3d 68 bd f7 3c 2c f6 6b bd
       -0.08471281 0.051368166 0.030241683 -0.057607815
0003c0 7c 24 8d 3d 3e 67 a1 bd f7 55 a2 bd a8 80 a1 3d
       0.068917245 -0.0788102 -0.07926553 0.07885867
0003d0 74 c2 43 3c 0d 4b 7f bd 7d 53 0e bd 42 16 30 3d
       0.011948217 -0.062327433 -0.03474759 0.042989977
0003e0 fc ba ce bd 90 b3 d0 bc c4 a6 91 bb 3c 7c 96 bd
       -0.10094258 -0.025476247 -0.004444929 -0.073479146
0003f0 3f 8b 81 bc 6b b0 61 3d 2b 2d b8 3d 5e f3 7a 3b
       -0.015813468 0.055099886 0.0899299 0.003829203

conv_block_2.0.bias f4 [10]
000000 7f e9 0f 3d 8c 79 83 bd 0b dd cc 3d 9e 65 b4 ba
       0.03513479 -0.064196676 0.10003098 -0.0013763194
000010 f0 32 4e 3d 9a 10 12 bc 05 71 b2 3d 3c 93 91 bd
       0.050341547 -0.008915091 0.08712963 -0.07108161
000020 93 9e e5 bc c7 c2 40 bd
       -0.028029716 -0.047060754

conv_block_2.2.weight f4 [10, 10, 3, 3]
000000 68 51 04 3c 8e 21 32 bd e1 0d fd 3b 03 3e 9f 3b
       0.008076049 -0.04348903 0.0077226018 0.0048596873
000010 92 f6 30 3d 6a 93 ce bc ca e3 af bd 38 46 92 bc
       0.043203898 -0.025216777 -0.08588369 -0.017855749
000020 43 ed c3 bd 84 27 a4 3d b3 dd 8f bd c7 c3 0b bd
       -0.095667385 0.080153495 -0.07024708 -0.034122255
000030 59 a1 bb bd 72 95 0c bd 99 5c a0 bc 1b 65 b3 3d
       -0.09161634 -0.03432221 -0.019575404 0.08759519
000040 44 b7 67 3d 87 4b 81 3d aa c2 39 3c 02 6d 61 3b
       0.05657126 0.06313234 0.011337915 0.003439725
000050 df 0d 75 3c 83 3d 2b 3d a4 c5 23 3d 94 b9 a3 bd
       0.01495692 0.04180671 0.039983407 -0.079943806
000060 81 89 8d 3d 4f 5f aa 3d 7c dc 2b bd 46 ac d1 3d
       0.069109924 0.0831896 -0.041958317 0.10237937
000070 7e 47 61 3d 4a 19 d6 bd bf bc b3 bd 65 a0 c1 bd
       0.05499982 -0.10454042 -0.08776235 -0.09454421
000080 ab fe ad bd 93 30 2f bc b4 35 af 3d 87 22 04 3b
       -0.0849584 -0.010692733 0.08555165 0.0020162181
000090 df 06 58 3c 59 b8 7c bd d5 62 8c 3d 8f cc ad 3d
       0.013185232 -0.061699245 0.06854788 0.08486282
0000a0 27 33 86 3d ef 14 ba bd 38 53 00 3c 68 ab 89 bd
       0.06552725 -0.09086024 0.007832341 -0.06722146
0000b0 06 9c cd bc 50 47 ba bd af 1c 2a bd 6b 2b 72 3c
       -0.025098812 -0.09095633 -0.04153126 0.014780859
0000c0 c9 84 73 bd eb 41 8a 3d ba 09 2c 3c 66 e1 96 bd
       -0.059452806 0.06750854 0.010500366 -0.0736721
0000d0 b5 5a 16 3c f2 ed 4e bc 16 e3 5b 3d 7f c9 ea bd
       0.0091769 -0.012629973 0.053683363 -0.114642136
0000e0 3c d1 99 bd 22 58 89 3c ff 7b 47 bd 0e f2 65 bd
       -0.075106114 0.016765658 -0.048702236 -0.056139044
0000f0 3c 66 dc 3c 3f 7c 83 3d f3 d7 b7 bc 54 70 80 3d
       0.026904218 0.064201824 -0.02244184 0.06271425
000100 00 9f cb 3d 54 71 f8 3b 50 f9 0b 3c 27 3d a3 3b
       0.09942436 0.007581869 0.008543327 0.004981655
000110 2b 88 a9 bd 73 05 a4 3d 10 99 be 3d fc 34 ac bd
       -0.08277925 0.08008852 0.09306538 -0.084085435
000120 a6 38 4f bd 63 53 7e bb 51 0f e8 bc d4 62 ec bc
       -0.050591134 -0.0038807027 -0.028327616 -0.028855719
000130 b5 63 01 3d 7b 00 f5 bc f3 57 d6 3c 6d 05 8e bd
       0.03158923 -0.029907456 0.026164984 -0.06934629
000140 32 8d 9b bd 0b d4 ed bc fa cc 5a 3d dc 87 33 bc
       -0.0759529 -0.029031774 0.053418137 -0.010957684
000150 d7 ee aa 3d bb a7 9b 3d 76 54 4b 3c 6c ed e9 3c
       0.08346336 0.076003514 0.012410274 0.028555594
000160 25 9a 80 3d 4d ea 91 bd b4 57 97 3b 45 9b bd bd
       0.06279401 -0.071247675 0.0046186093 -0.09258131
000170 61 30 80 bc f6 25 80 3d 08 d6 29 bd 9c 79 97 3d
       -0.015648069 0.062572405 -0.04146388 0.07396242
000180 78 55 89 3d 0f 04 d2 bc 8f 1d 91 3c 5c fc a9 3d
       0.06705755 -0.0256367 0.01771429 0.08300087
000190 b6 99 3b bd a7 79 df 3d 72 22 48 bd 2a 7a 19 bc
       -0.045800887 0.10911875 -0.048860975 -0.009367505
0001a0 c1 ce d8 3c e1 20 76 bd c3 8c 9d 3b a1 11 c6 bd
       0.026465775 -0.06008995 0.00480804 -0.09671331
0001b0 b7 59 66 3c 42 f6 71 bd 24 18 83 3d 3e 3a 47 3d
       0.014059476 -0.05907274 0.06401089 0.04863953
0001c0 62 05 f0 bc 0d 24 79 bd 3b a6 5c 3d 14 ec c9 3c
       -0.029299442 -0.060825396 0.053869467 0.024648704
0001d0 0e 03 2f bd 2c 54 9c bc 5a 66 9b 3d 6e a4 97 bd
       -0.042727523 -0.019083105 0.075878814 -0.07404409
0001e0 f7 e0 0c bd a0 f4 62 3b 46 8b b6 3d b7 9e 34 bd
       -0.03439423 0.003463067 0.08913283 -0.044096675
0001f0 59 27 d7 bd e4 53 2d 3d d0 80 9b bd 86 51 8d 3c
       -0.10505552 0.042316332 -0.075929284 0.017250787
000200 ad 1d a5 bb 12 62 0b bb fc d0 65 3b 19 11 f2 bc
       -0.005038938 -0.0021268171 0.0035067191 -0.029549168
000210 67 a7 57 3d c1 38 6c bb 62 79 cd bd 60 50 03 bc
       0.05264988 -0.003604457 -0.100329176 -0.008014768
000220 78 52 de 3c 8e 7f b0 bd 31 19 d2 3b cf c6 c3 bd
       0.027138934 -0.08618079 0.0064116945 -0.09559404
000230 2e 95 ba 3d fc d7 75 3d 5b 0f 12 bd f3 ba 7d bc
       0.09110485 0.060020432 -0.035659175 -0.015486467
000240 52 62 11 3d e0 9f 40 3d af bb 77 bd 62 06 1b 3d
       0.035494156 0.04702747 -0.060481723 0.037847884
000250 2d cf 99 bc c3 1a ce bd 4e e9 b7 3d 1b ce aa bc
       -0.018775547 -0.10063698 0.08980046 -0.020850232
000260 8d f2 36 3d 32 51 54 bd 06 78 dd bc e0 93 b9 bd
       0.04466491 -0.051835246 -0.02703477 -0.09061408
000270 3d 0e d4 3d eb ca d2 bd 48 8a 4e bd b7 d1 9c 3d
       0.10354278 -0.1029261 -0.050424844 0.076571874
000280 02 30 84 3d 8f 33 73 3d 1a c4 1f 3d fd bd c9 3d
       0.06454469 0.059375342 0.039005376 0.098506905
000290 42 d0 d4 bd 66 05 14 3d d9 24 6e bc d4 ca 98 bb
       -0.103912845 0.03613796 -0.014535152 -0.004662851
0002a0 67 87 7b 3d ed ea 9b bd 13 63 38 3c ab 99 bc 3d
       0.061408427 -0.07613168 0.01125409 0.09208997
0002b0 8c 3a 7e bd 1b 2e 48 bd 8b 37 8a bd 94 1b 96 3d
       -0.062067553 -0.048872095 -0.06748875 0.07329479
0002c0 89 f9 89 3c 72 75 97 3d 84 b1 b7 3d 80 5a d4 3d
       0.01684262 0.07395448 0.08969405 0.10368824
0002d0 09 50 9d 3d 60 30 55 bd 7d bd 00 bd b2 3c 70 bd
       0.07681281 -0.052048087 -0.03143071 -0.058651634
0002e0 ca 3d a2 bd 22 c0 e8 bd fd 71 d5 bd fe d2 78 bd
       -0.079219416 -0.113647714 -0.10422132 -0.060748093
0002f0 31 74 9c 3c 7e 5f 19 bd 87 f2 87 3d d0 03 9f bd
       0.019098373 -0.037444584 0.06638055 -0.07764399
000300 35 f2 3a bc ec 12 17 bd 66 c5 a3 bd 01 ed a1 bd
       -0.011410286 -0.03688328 -0.07996635 -0.07906533
000310 52 54 bf bc ec f1 c5 3c 49 3b cf bc a2 a1 5b bd
       -0.023355637 0.024163209 -0.025296824 -0.053620942
000320 51 b4 d5 bd 3e d8 8c bd c6 d1 8b bd 0e 93 14 3d
       -0.10434783 -0.068771824 -0.068271205 0.036273055
000330 e7 c0 92 bd 46 57 50 3d 15 1a 90 3d ff fa fe bc
       -0.071656995 0.05086448 0.07036225 -0.031125544
000340 ed bf 59 3d 5b cb ae bd 30 53 87 bd 9f 34 84 bd
       0.05316155 -0.08534881 -0.06607664 -0.06455349
000350 bb bd 9e 3d 6d 48 1a 3d 5c da 75 3d b3 28 6d 3b
       0.07751032 0.037666727 0.060022697 0.0036187589
000360 3a 93 2f 3d 68 f8 80 bc 55 54 e3 bd 05 12 90 bd
       0.042865016 -0.01574345 -0.111000694 -0.07034687
000370 13 fe d5 bb eb 74 fc 3c 24 16 67 3d 21 4f 43 bd
       -0.006530532 0.03081747 0.0564176 -0.047682885
000380 47 13 ae bd 41 5a cb 3d 2b ac 99 bd b6 9e 44 3c
       -0.084997706 0.09929324 -0.075035416 0.01200073
000390 2f d1 80 3d 2b ea 44 3d 96 29 9a bc 0a 9f 35 bd
       0.062898986 0.048074882 -0.018818658 -0.044341125
0003a0 01 13 d7 3c e0 e3 77 3d a9 a1 0a bc 5b 28 c3 3d
       0.026254179 0.060520053 -0.008461394 0.095291816
0003b0 60 ee 1a bd 50 ea c3 bd 8e 2f 85 3d c0 41 c6 3d
       -0.03782499 -0.09566176 0.06503211 0.096805096
0003c0 08 be b8 bd 24 57 8b bd 12 33 8f bd 19 58 2f bd
       -0.090206206 -0.0680373 -0.06992163 -0.042808626
0003d0 2b 28 be 3d 26 e2 5d 3d 88 da 43 bd 7f 78 52 bd
       0.09285005 0.05417075 -0.04781583 -0.051384445
0003e0 b8 50 81 3c 9c 21 7e bb 77 b6 12 bd b0 88 99 bb
       0.01578556 -0.0038777357 -0.035818543 -0.004685484
0003f0 fe b5 90 3c 21 b9 c5 3d 1e 2a a5 bd 6f 7c 1e 3a
       0.017664906 0.09654451 -0.08064674 0.0006045764

conv_block_2.2.bias f4 [10]
000000 d5 a9 3e 3d c5 db ed bc 9c 6e 9c 3c 05 6c d3 bc
       0.046548683 -0.029035458 0.019095711 -0.025808344
000010 79 d2 e3 bb ae 62 84 3b 5d 28 8f 3d d6 86 82 bc
       -0.0069525805 0.004040084 0.069901206 -0.015933435
000020 9a 69 a8 3d 4f aa f9 3c
       0.08223267 0.030476717

classifier.1.weight f4 [3, 1690]
000000 cf bb 65 bb a3 24 bd 3c 8f 3e db 3c 57 e0 fd 3b
       -0.003505457 0.023088759 0.026763229 0.0077476907
000010 d8 12 33 3c 18 d9 99 bb ba 52 86 3c e4 df 58 bc
       0.010929786 -0.004695069 0.016396869 -0.013236973
000020 cf ab 8e 3b 3f 7d 0c bc 12 a5 d5 3c e1 8f c8 3c
       0.0043539773 -0.008574783 0.026079688 0.02448267
000030 b2 53 a8 3c 06 0a bd bb 2a 1f 60 3c eb 2f 7c ba
       0.020547722 -0.005769017 0.013679305 -0.00096201774
000040 53 ff 76 bc 91 8d 5a 3c f5 7b ac 3c e4 db 08 3c
       -0.0150755225 0.013339416 0.021055201 0.008353207
000050 1c a1 e6 3b cb 10 6c 3c e9 6f 92 3b dc db 36 bc
       0.0070382487 0.014408301 0.004468907 -0.011160817
000060 c5 33 fc 3b a2 19 86 ba ad 61 87 3c fb fa fb ba
       0.007696601 -0.0010231028 0.016526068 -0.0019224578
000070 51 ea f0 3a 0d e2 87 bc 79 08 c0 3c 17 4f be 3c
       0.0018380379 -0.016587282 0.02344154 0.023231072
000080 6d e1 24 3c ad e9 82 bc 82 85 8d bc c1 61 b8 3c
       0.010063511 -0.015980566 -0.017275576 0.02250755
000090 bc fe 80 3a 2d 41 82 bb 0f e7 3c 3c d6 79 85 bc
       0.0009841542 -0.0039750547 0.011529698 -0.016293447
0000a0 3e 28 6c bc 93 b3 d5 3c 2b a3 e1 3c bd 56 77 bc
       -0.014413891 0.026086604 0.027543625 -0.015096364
0000b0 63 f7 94 bc ae 39 bb 3c 18 63 17 b9 d1 49 83 3b
       -0.01818437 0.022854652 -0.00014437397 0.0040066023
0000c0 3e 61 8c 3c be 1c 08 3c f9 38 0f bc a7 18 9a 3c
       0.017136212 0.008307634 -0.008741611 0.018810583
0000d0 34 f7 8a bc ca e8 d7 ba 7a 77 83 3b f5 71 a2 3c
       -0.016963579 -0.0016472575 0.0040120455 0.01982973
0000e0 b8 14 89 bc c6 b5 eb bb 14 b9 3b bc 4f c5 b2 3c
       -0.016733512 -0.0071933 -0.0114577 0.0218226
0000f0 d7 60 61 3c c1 d3 9b bb 91 9b 60 bc 24 d4 5d 3b
       0.013755999 -0.0047554676 -0.013708965 0.003384837
000100 52 39 e7 3b 7d 1c bb 3c cf 7a 56 3c e7 75 03 bc
       0.0070563937 0.022840733 0.013090803 -0.008023716
000110 0b 83 11 bc 1c 1e 89 3c 8e 4b 1d bc eb 5b 99 bc
       -0.008881341 0.01673799 -0.009600533 -0.018720588
000120 0b 82 2a bc 57 39 69 3c 08 3c 31 bc 2e d8 d0 3c
       -0.010406981 0.014234862 -0.010817535 0.025493708
000130 27 0e c5 bb e3 ab 49 3c 38 6f 89 bc 0d fd d2 3c
       -0.00601365 0.012309047 -0.016776666 0.02575543
000140 96 8e a1 3c 4b f4 9e 3c 1d d2 32 bc 88 dc 5c 3c
       0.01972131 0.019403597 -0.010914353 0.013480313
000150 b7 1d 71 bc 1f c8 97 bc 6e 3b a3 bc 26 1b 0b bc
       -0.014716557 -0.018528042 -0.0199258 -0.008490359
000160 ee 7d f8 3a fa 68 43 3c bc 2b e7 39 70 57 5a bb
       0.0018958428 0.011926884 0.00044092338 -0.0033316277
000170 c1 5a c4 3c 67 34 ac 3c be 76 b3 bb 1c f9 47 bc
       0.023969056 0.021021081 -0.0054768017 -0.012205388
000180 9f 53 1c bc 19 d2 7f bb 12 51 8a bb c7 fd 98 bc
       -0.009541421 -0.003903514 -0.00422109 -0.018675698
000190 4c f4 69 3c 8c d5 97 3c ae a2 dc 3c 43 ad d1 3c
       0.014279436 0.018534444 0.02693304 0.025595313
0001a0 2a 04 30 bc 71 43 92 bc 32 e6 66 ba 18 0a a3 bc
       -0.01074318 -0.017854424 -0.00088081055 -0.019902274
0001b0 ee 70 a0 bc d3 59 1c bc 5e b3 0b 3c e9 d0 89 3c
       -0.0195851 -0.0095429 0.008526651 0.016823249
0001c0 22 6f cd 3a 02 a2 50 3c 19 42 2c bc 25 4c 8f 3c
       0.0015673379 0.012733938 -0.010513806 0.017492363
0001d0 32 13 b0 3c d7 83 8f 3c 4b 71 84 bc 32 f8 3d 3c
       0.021493528 0.01751892 -0.016167304 0.011594819
0001e0 cc 39 19 3c 46 3a bb 3b 9e 41 94 bc af 24 36 bc
       0.009352159 0.005713734 -0.018097695 -0.0111171445
0001f0 7c 2f bb 3c 15 8f b4 3c c6 b2 bd bb 13 cc dc 3c
       0.02284979 0.022040883 -0.0057891337 0.026952779
000200 e0 87 1f bc b8 a1 86 bb 9c 80 28 3c c8 4e 80 bb
       -0.009736985 -0.004108634 0.010284569 -0.0039156415
000210 0f ae d7 3c d8 e9 44 bc 30 a9 79 3c aa bb ba 3c
       0.026328115 -0.012018643 0.015238091 0.022794563
000220 fb 74 81 bb 55 14 a5 3c 5c f8 8b bb 70 bb 71 bc
       -0.0039507127 0.020151297 -0.00427155 -0.014754161
000230 11 1a bc bb b5 c4 56 3b 49 08 ab 3c 62 56 86 bc
       -0.005740412 0.0032771055 0.020877974 -0.016398612
000240 ba 1d 91 3c 2e 3d a7 bb a2 62 b6 3c 86 7f 96 3c
       0.01771437 -0.0051037287 0.022263829 0.018371355
000250 27 ae 8a bc f3 5a 88 bc 7e f0 77 bc fa d5 03 3b
       -0.016928745 -0.01664493 -0.015133021 0.0020116554
000260 94 b4 7a bb 6a 30 2a bc 2a 55 16 3b 60 50 a6 3a
       -0.0038254606 -0.010387519 0.0022938945 0.0012688749
000270 e0 b7 44 bc 4b a3 b4 3b 3b bb 50 bc 41 ae 5e bc
       -0.01200673 0.00551263 -0.012739952 -0.01359135
000280 01 6c 9c bc 37 63 3e 3c 57 a9 10 ba 31 2c 9b bb
       -0.019094469 0.011620334 -0.00055183977 -0.0047354926
000290 0f 53 65 bc 59 bd 6d bc cc 2a da 3b 2f 91 a1 3c
       -0.0139968535 -0.014510476 0.006657934 0.01972255
0002a0 18 45 3c ba 5d 77 6e ba 62 8c b6 3c 3b c6 59 bc
       -0.00071819266 -0.0009096766 0.022283737 -0.013291891
0002b0 f0 a6 5b 3c 73 3a 06 b9 ea 9f b1 bc 35 c2 82 3c
       0.0134065 -0.0001280101 -0.021682698 0.015961746
0002c0 73 be bd bc 4e 3f 05 bd 59 7c c0 bc 20 cb b9 bc
       -0.023162102 -0.032531075 -0.023496794 -0.022679865
0002d0 9e 2a 3b 3c 2c 14 24 3b 9c 9c 60 3c fa 42 83 39
       0.011423735 0.0025036437 0.013709214 0.00025036169
0002e0 fb 41 a8 bc 3b 8a 77 bc 27 22 b3 bc 22 6e b1 bc
       -0.020539274 -0.01510864 -0.021866871 -0.02165896
0002f0 33 a7 10 3b e4 8d df bc dc 7e 65 bb 17 57 3d 3c
       0.0022072315 -0.027289338 -0.003501824 0.011556408
000300 a8 84 57 bc c9 35 c1 bc 4c d6 ce bb 6c 6b b1 bc
       -0.013154186 -0.023585217 -0.0063121673 -0.021657668
000310 d4 ed 7d bc 45 ad bb bc cb d6 d2 39 4d 0e 71 bc
       -0.015498597 -0.02290977 0.00040214355 -0.014712882
000320 f8 4b ca bc 90 d8 a8 bc 83 09 e1 bc 6f 8d d5 bc
       -0.024694428 -0.020611078 -0.027470356 -0.026068417
000330 3b 5f e9 bc ed ab 53 bb f1 e6 4a 3c dd 25 42 3c
       -0.028487792 -0.003229852 0.012384162 0.011849848
000340 fc c0 2e bb f6 be c8 bc d6 63 bc 3b 8e 7a b4 3b
       -0.002666532 -0.02450512 0.005749206 0.0055077737
000350 6d da 87 bc b6 05 28 bc 61 c1 60 bc 8a 6b 78 bc
       -0.016583646 -0.010255268 -0.01371798 -0.015162358
000360 9f 35 7b bc 1d e6 b3 3a 97 97 6e bc 7e a9 f2 3b
       -0.0153326085 0.0013725195 -0.014562509 0.007405459
000370 dd d3 9e 3c a7 e2 41 bb 73 de 9f 3c 41 5c bc bc
       0.019388134 -0.0029584558 0.019515252 -0.022993209
000380 9b b0 8c bc 56 7f 88 3c 5c 9b 12 3c 83 7b 85 bc
       -0.017174056 0.016662281 0.008948173 -0.016294247
000390 5d db b8 39 29 cf d0 bb 95 48 a2 bc 96 eb 9d 3c
       0.00035258653 -0.0063723517 -0.01981 0.019277375
0003a0 62 57 89 3a 75 45 c2 3c 30 fb 05 3b 35 64 34 3b
       0.0010478313 0.02371476 0.002044391 0.0027525548
0003b0 51 f4 14 3c 3b c2 b1 3c f8 00 7f 3c 8f 72 a6 3c
       0.009091453 0.021699062 0.015564196 0.020318298
0003c0 9b e3 a8 bb d8 a8 e7 3b b5 e0 b8 3b 63 7e 10 3c
       -0.005154086 0.0070696883 0.0056420215 0.008819195
0003d0 54 8c a6 bc da ae 8b 3b d0 1e 30 3c 53 ef c4 ba
       -0.020330586 0.0042627873 0.010749534 -0.0015024937
0003e0 e0 0f a7 bc 8b 67 7d bb fc 8f b5 3c ca fa b3 bb
       -0.020393312 -0.0038666453 0.022163384 -0.005492543
0003f0 2f b1 89 3c 14 10 8d 3c 07 d0 8e 3c 24 ee bd bb
       0.01680812 0.01721958 0.01743318 -0.005796211

classifier.1.bias f4 [3]
000000 4a 12 20 3c be a5 a7 bc f1 0a 92 bc
       0.009769985 -0.020464774 -0.017827483
