models/05_TinyVGG_from_cell_model.pt (torch, 36674 bytes, 10 tensors)

conv_block_1.0.weight f4 [10, 3, 3, 3]
0	0x3e17bd48	0.14818299
1	0x3e247976	0.16061959
2	0xbd39e7bb	-0.04538701
3	0x3e34df48	0.176633
4	0xbd2ad1e0	-0.04170406
5	0x3d2142ef	0.039370473
6	0xbdc0a9c0	-0.09407377
7	0x3de6eaf3	0.11275282
8	0x3e2cc915	0.16873582
9	0xbe3094d8	-0.1724428
10	0x3e0d6ad0	0.13810277
11	0x3b872493	0.004124233
12	0x3ddff586	0.10935502
13	0xbb36109c	-0.0027780896
14	0x3d82bb72	0.063834086
15	0xbd7f2ef9	-0.062300656
16	0x3dea4f8c	0.114409536
17	0xbbb96228	-0.005657453
18	0xbdb90d87	-0.09035783
19	0x3d57d842	0.052696474
20	0xbdb4f85e	-0.08836435
21	0xbcdcda5e	-0.026959594
22	0xbd9bb497	-0.07602804
23	0x3e04c134	0.12964326
24	0xbe255e29	-0.161492
25	0xbdc59589	-0.09647662
26	0xbd7d5344	-0.061846986
27	0xbd503d38	-0.050839633
28	0x3da99463	0.08280256
29	0xbe00120b	-0.12506883
30	0x3e7224ca	0.23646846
31	0xbdcc97ad	-0.09989867
32	0x3e5ac5be	0.21364495
33	0x3dbed86b	0.09318622
34	0xba61046a	-0.00085837266
35	0x3e3a3f92	0.18188313
36	0x3d4a14ab	0.049336117
37	0x3e31b39e	0.17353675
38	0x3d20bf0a	0.03924469
39	0xbd3cb6a4	-0.046072617
40	0x3d858412	0.06519331
41	0xbd15fa7c	-0.036615834
42	0x3dbd03fb	0.09229275
43	0x3e3b50ed	0.1829259
44	0x3dffa5e7	0.12482815
45	0xbcc988b3	-0.024601316
46	0x3e2b7a6d	0.1674592
47	0x3db92484	0.09040168
48	0x3e1ad3ad	0.1511981
49	0xbd8a1994	-0.0674316
50	0xbe0e1c50	-0.13877988
51	0xbcd8c962	-0.026463214
52	0xbdcfc5f9	-0.10145182
53	0x3e535e62	0.20641473
54	0x3c2ce731	0.010553167
55	0x3d154b7b	0.036448937
56	0x3c83df79	0.016097771
57	0xbd468440	-0.048465967
58	0x3ddd0e50	0.107937455
59	0xbe36c14a	-0.17847171
60	0xbd07a87d	-0.033119667
61	0xbe334b21	-0.17509128
62	0x3c8fbfa9	0.017547445
63	0xbdade361	-0.08490635
64	0x3d3518b5	0.044213016
65	0xbd6d82fe	-0.057986252
66	0x3e0ead01	0.13933183
67	0xbe06558b	-0.1311857
68	0xbe06964a	-0.13143268
69	0xbe0b2d09	-0.13591398
70	0x3e1d1000	0.15338135
71	0x3d3b3113	0.045701098
72	0x3e153a65	0.14573057
73	0xbe444892	-0.19168308
74	0xbe68a391	-0.22718646
75	0xbe430d12	-0.19047955
76	0xbe27b292	-0.16376713
77	0x3d31534a	0.04329232
78	0x3ceabc48	0.028654233
79	0x3dfbc863	0.1229408
80	0xbe0afced	-0.13573046
81	0xbe20e474	-0.15712148
82	0x3d976151	0.073916085
83	0xbddd4cb5	-0.10805646
84	0x3dbe7e09	0.09301383
85	0xbd90b8f1	-0.07066525
86	0x3da8dd8a	0.0824538
87	0xbe304c13	-0.1721652
88	0xbdf7009c	-0.12060663
89	0x3d05c639	0.032659743
90	0x3d8bacbd	0.068200566
91	0xbcbeafa0	-0.023277104
92	0x3e0939fb	0.13401024
93	0x3e26ae86	0.16277513
94	0xbdd95b35	-0.106130995
95	0xbd9af493	-0.0756618
96	0x3e555c71	0.20836045
97	0xbd03003c	-0.031982645
98	0xbd254c03	-0.040355694
99	0xbe48d2ef	-0.19611715
100	0xbdf4a67c	-0.11945817
101	0x3cd303e4	0.025758691
102	0xbcf2a990	-0.02962187
103	0xbe0e330d	-0.13886662
104	0xbb801333	-0.0039085387
105	0xbe072894	-0.13199073
106	0xbe230823	-0.15921073
107	0xbddefa47	-0.1088758
108	0xbe20241a	-0.15638772
109	0xbde50dc4	-0.11184266
110	0x3e40bb6d	0.18821497
111	0x3d3baa60	0.04581678
112	0x3d89d3b7	0.067298345
113	0xbe3970fe	-0.1810951
114	0xbdf861b9	-0.12128014
115	0xbd705a7b	-0.05868004
116	0x3cf2b222	0.029625956
117	0xbe0fcbf8	-0.14042652
118	0xbd715593	-0.0589195
119	0xbde4bca6	-0.11168794
120	0x3ce2e572	0.027697299
121	0xbd509ae8	-0.05092898
122	0xbbe00dee	-0.006837598
123	0xbddd395a	-0.108019546
124	0xbde6290b	-0.11238297
125	0xbdcf2acf	-0.10115587
126	0xbd92e61e	-0.071727976
127	0xbe29afb1	-0.16570927
128	0x3e056125	0.13025339
129	0xbd350d19	-0.044201944
130	0x3e19dfa3	0.15026717
131	0x3d0404a4	0.03223099
132	0xbe2b1877	-0.16708551
133	0x3dfc1f63	0.12310674
134	0xbd8eb1a9	-0.0696748
135	0xbdd4f272	-0.10397805
136	0xbe4e9023	-0.20172171
137	0xbe78757e	-0.2426357
138	0x3d6863d1	0.056735817
139	0xbd3875e3	-0.0450343
140	0x3d6985b5	0.05701228
141	0xbe2762e4	-0.16346318
142	0x3e12bef7	0.1433066
143	0xbe0f205a	-0.13977185
144	0xbd91d26a	-0.071202114
145	0xbc4b6616	-0.012414476
146	0x3d08615a	0.033295967
147	0x3e18a9d8	0.1490854
148	0x3e2657b3	0.16244392
149	0xbe3cadce	-0.18425676
150	0x3d1a14a7	0.03761735
151	0xbdae3da4	-0.08507851
152	0xbcb3e667	-0.02196045
153	0xbe39b986	-0.18137178
154	0x3de9e2b8	0.11420196
155	0xbe65cdc1	-0.2244177
156	0x3dc7a108	0.09747511
157	0x3d4f6196	0.050630175
158	0x3c9a904a	0.01886763
159	0xbddc6230	-0.10760915
160	0x3e31ee3a	0.17376032
161	0x3d0487f5	0.03235622
162	0x3c80d1fa	0.015725125
163	0xbe3807de	-0.17971751
164	0x3d90b1c9	0.0706516
165	0xbcffdc29	-0.03123291
166	0xbdbf6db1	-0.09347094
167	0x3e1e5f23	0.1546598
168	0x3d276ca3	0.04087509
169	0xbde0d6f7	-0.10978501
170	0xbdd72c35	-0.10506479
171	0xbc846497	-0.016161246
172	0x3dcc7951	0.09984077
173	0xbd685712	-0.05672366
174	0xbde130c0	-0.109956264
175	0xbd8c5c4a	-0.0685354
176	0xbe1bc3cb	-0.15211408
177	0x3d8c1528	0.06839973
178	0x3e17b75f	0.14816044
179	0xbe3fe0c4	-0.18738085
180	0x3d20311b	0.03910933
181	0x3dbeb348	0.09311539
182	0x3ce9432b	0.028474411
183	0xbd8b4fe3	-0.068023466
184	0x3dcaa848	0.09895378
185	0x3dc14668	0.09437257
186	0x3d94dcce	0.07268678
187	0xbd07f090	-0.033188403
188	0xbd60360f	-0.054739054
189	0xbbdd1200	-0.0067465305
190	0xbd707b88	-0.05871156
191	0xbda433e9	-0.080177136
192	0x3dc5b83e	0.09654282
193	0x3e105ffc	0.14099115
194	0xbd2bf4a2	-0.041981347
195	0xbd949fdf	-0.072570555
196	0xbcd738c1	-0.02627218
197	0xbd1b49e1	-0.037912253
198	0x3d010aa0	0.031504273
199	0x3d268833	0.040657233
200	0xbe4071bc	-0.18793386
201	0xbdaf6c90	-0.085656285
202	0x3e1893d5	0.14900143
203	0x3d7bc5b3	0.061467838
204	0xbce78fd0	-0.028266817
205	0xbe0a5992	-0.13510731
206	0xbe0ac365	-0.135511
207	0xbe3b69aa	-0.18302026
208	0xbd90cac3	-0.07069924
209	0x3d6bed90	0.057599604
210	0x3de581d3	0.11206403
211	0x3da635b8	0.08115715
212	0xbe360817	-0.17776524
213	0xbe041e22	-0.1290212
214	0xbd345bb7	-0.04403278
215	0x3e3138c3	0.17306809
216	0x3c704096	0.014663836
217	0xbd853699	-0.06504554
218	0x3d7b9af2	0.061427064
219	0xbda45fc0	-0.08026075
220	0xbe09adca	-0.13445202
221	0x3e023fc5	0.12719639
222	0xbdbabd6c	-0.091181606
223	0xbd3b5d84	-0.04574348
224	0xbe4e5e56	-0.20153174
225	0x3e12bb2d	0.14329214
226	0x3e22afbe	0.15887353
227	0x3da903ea	0.082527
228	0xbdd9f42c	-0.10642275
229	0xbe25fdad	-0.16210051
230	0xbe070502	-0.13185504
231	0x3e30026d	0.17188425
232	0x3df28da1	0.1184342
233	0x3e3e0e60	0.18560171
234	0x3d5aff3c	0.053466067
235	0x3acff92b	0.0015867105
236	0xbd47ab52	-0.04874737
237	0xbe3e640b	-0.18592851
238	0xbe4ce05b	-0.2000746
239	0xbe5b8379	-0.21436872
240	0x3d14e08e	0.036346965
241	0xbe0841e2	-0.13306382
242	0xbd98f171	-0.07467926
243	0xbde2d410	-0.11075604
244	0xbd0fa473	-0.03506894
245	0xbe0ab437	-0.13545309
246	0xbe00c495	-0.1257499
247	0x3d82bd61	0.063837774
248	0xbd6a45cd	-0.057195473
249	0x3df3517b	0.118807755
250	0xbd7ce2be	-0.061739676
251	0xbe109033	-0.14117508
252	0xbd0b151f	-0.03395569
253	0xbdbf0ea9	-0.09328968
254	0xbd712a91	-0.058878485
255	0xbe3b9bd5	-0.18321164

conv_block_1.0.bias f4 [10]
0	0x3caae7f1	0.020862551
1	0xbe49ca84	-0.1970616
2	0x3df4685c	0.119339675
3	0x3e5bbcfd	0.21458812
4	0x3e76687f	0.240633
5	0xbd24a6d4	-0.040198162
6	0xbe289599	-0.16463317
7	0x3caa5dd3	0.020796692
8	0x3e2cde2b	0.16881625
9	0xbe4424f7	-0.19154726

conv_block_1.2.weight f4 [10, 10, 3, 3]
0	0xbacce31d	-0.001563165
1	0xbd45dae2	-0.048304446
2	0x3aa6e2a6	0.0012732341
3	0xbcc733f3	-0.024316764
4	0xbcccfec1	-0.02502382
5	0xbca356ac	-0.01993879
6	0xbd90dc91	-0.0707332
7	0x3de46451	0.11151946
8	0x3dda07f6	0.1064605
9	0xbd90a039	-0.0706181
10	0xbda7d853	-0.081955574
11	0xbdd03cd5	-0.10167853
12	0xbe1354b2	-0.14387777
13	0xbe1df932	-0.15427092
14	0xbca1e395	-0.01976184
15	0xbdd6afcd	-0.1048275
16	0xbdf1c883	-0.11805823
17	0xbd82c1b2	-0.06384601
18	0xba05eb1a	-0.000510858
19	0x3ba9911f	0.0051747705
20	0x3d191081	0.037369255
21	0x3c470b45	0.012148683
22	0x3bcaf92f	0.006194256
23	0xbc212402	-0.009835245
24	0xbd731a6b	-0.059351366
25	0x3df540cc	0.1197525
26	0xbbfc0888	-0.0076914467
27	0x3dea3751	0.11436332
28	0x3d7103a0	0.058841348
29	0x3df36d9a	0.11886139
30	0x3e399daf	0.18126558
31	0x3e06d592	0.13167408
32	0x3c117bea	0.008879641
33	0x3e04f1ee	0.12982914
34	0x3e3abd4c	0.18236274
35	0x3df14d06	0.11782269
36	0x3e174671	0.14772965
37	0x3e3f0f1f	0.18658112
38	0x3d8b01d1	0.06787456
39	0x3dad931f	0.08475327
40	0x3b5ee436	0.0034010536
41	0x3d806c12	0.06270613
42	0x3e13613d	0.14392562
43	0x3e011d40	0.12608814
44	0x3c38fd1f	0.0112908175
45	0xbe18d2d1	-0.1492417
46	0xbdef7e1e	-0.11693977
47	0xbe4c5961	-0.1995597
48	0xbe3b867a	-0.18313017
49	0xbdb14032	-0.086548224
50	0x3bb31f32	0.0054663653
51	0x3d19d4ca	0.037556447
52	0xbe0aef77	-0.13567911
53	0xbe038ca4	-0.12846619
54	0x3dac97d2	0.08427395
55	0xbd37bac8	-0.044855863
56	0xbc7b766e	-0.01534806
57	0x3d4f1dba	0.05056546
58	0xbd2d44fe	-0.042302124
59	0xbc3c508e	-0.011493815
60	0xbc1653f9	-0.009175294
61	0xbccc4aef	-0.024938075
62	0xbd5aea12	-0.053445883
63	0xbd3834c2	-0.04497219
64	0xbccdf445	-0.02514089
65	0xbc9ba156	-0.01899783
66	0x3e0a5b28	0.13511336
67	0xbc6e5366	-0.014546251
68	0xbd092915	-0.033486445
69	0x3d9ae4e4	0.07563189
70	0x3da14fd6	0.078765556
71	0x3db877d9	0.09007234
72	0x3e23060c	0.15920275
73	0x3e1dcac2	0.15409377
74	0x3a9d0f0f	0.0011982637
75	0x3db5fc80	0.08886051
76	0x3e18bfd5	0.14916928
77	0x3daba9eb	0.08382019
78	0x3c9cec6c	0.019155703
79	0x3e40e89c	0.18838733
80	0x3d6809b0	0.056649864
81	0xbd75d16f	-0.060014185
82	0xbdc2a045	-0.09503225
83	0x3b9a4960	0.004708454
84	0x3d3f5355	0.04671033
85	0x3cbf264c	0.023333691
86	0x3caac268	0.020844653
87	0xbda3b823	-0.07994106
88	0xbdc99b1a	-0.098440364
89	0x3af34b61	0.0018561893
90	0x3de9500c	0.11392221
91	0x3d9e9aee	0.07744394
92	0xbd353a9a	-0.04424534
93	0x3bd2b90c	0.0064307507
94	0xbd6ff8f9	-0.05858705
95	0xbd084d39	-0.03327677
96	0x3d218979	0.039437745
97	0x3d9c3c05	0.07628635
98	0x3dd76dd6	0.105189964
99	0xbd0fdfc8	-0.035125524
100	0x3e056e52	0.13030365
101	0xbc3d0ffb	-0.011539455
102	0x3dc109a5	0.09425668
103	0x3e136dc6	0.14397344
104	0x3d594b41	0.053050283
105	0x3e157998	0.14597166
106	0xbd2159da	-0.03939233
107	0x3bceabd9	0.006307107
108	0x3d7be261	0.06149519
109	0xbcb1ccd2	-0.021704111
110	0xbc953625	-0.018214295
111	0xbd1ef33b	-0.03880618
112	0x3da44540	0.08021021
113	0x3d70ffbc	0.058837637
114	0x3d2859b4	0.041101173
115	0xbd62942b	-0.055317085
116	0xbdb24053	-0.08703675
117	0xbd99f8bf	-0.07518148
118	0xbd557967	-0.05211773
119	0xbe08401e	-0.13305709
120	0xbdddb037	-0.10824626
121	0xbbf1c8b3	-0.0073786615
122	0xbd9cc1e7	-0.076541714
123	0xbd9eae6f	-0.07748114
124	0xbdda005d	-0.106446005
125	0xbe34313c	-0.17596906
126	0xbe3dde43	-0.18541817
127	0xbe069f5d	-0.1314673
128	0xbe16b9f7	-0.14719377
129	0xbd5bd0b6	-0.05366584
130	0xbe003434	-0.12519914
131	0xbe18a292	-0.14905766
132	0x3b23ba6e	0.0024982947
133	0xbd7deec7	-0.061995294
134	0xbcd0529c	-0.025430016
135	0xbd137d0c	-0.036007926
136	0xbd30464b	-0.043035787
137	0x3d4c6eb0	0.049910247
138	0xbd1a23ad	-0.03763168
139	0xbd82bc3a	-0.063835576
140	0x3ccab94a	0.024746556
141	0xbcf5d8b8	-0.030010566
142	0xbd8c21ff	-0.06842422
143	0x3d7284a6	0.059208535
144	0x3d9d6042	0.07684375
145	0x3cd8dde2	0.02647299
146	0xbc1549dc	-0.009111848
147	0xbdc9afe6	-0.09848003
148	0xbcd9f201	-0.026604654
149	0x3caa3544	0.020777352
150	0x3d0a7767	0.033805277
151	0xbc96950d	-0.01838162
152	0xbd2c4d2e	-0.04206579
153	0x3d526ac0	0.051371336
154	0xbda082c8	-0.078374445
155	0x3d94f305	0.07272915
156	0xbd616598	-0.055028528
157	0xbc082fa3	-0.008312139
158	0xbd29f89e	-0.041496865
159	0x3bd5521b	0.006510032
160	0xbd187213	-0.037218165
161	0x3d8f6656	0.07001941
162	0xbdf57073	-0.119843386
163	0xbcca1046	-0.024665963
164	0x3bc20be4	0.0059218276
165	0xbe2a2252	-0.16614655
166	0xbe377815	-0.17916901
167	0xbbaa841c	-0.005203737
168	0xbc2b8062	-0.010467621
169	0xbe4084c3	-0.18800645
170	0xbde692f5	-0.112584986
171	0xbdd4e215	-0.10394684
172	0xbdb0b7b9	-0.08628792
173	0x3ca6c7f1	0.020359011
174	0x3ce5b968	0.02804251
175	0x3cb70c5f	0.022344766
176	0xbceb0485	-0.028688679
177	0x3dc72a15	0.097248234
178	0x3c76ed32	0.0150712
179	0xbd7ec5d9	-0.0622004
180	0xbd2cc09a	-0.042175867
181	0xbc0902e6	-0.008362507
182	0x3c16dd3a	0.009208018
183	0xbde59289	-0.1120959
184	0xbae88860	-0.0017740838
185	0xbdb5364c	-0.08848247
186	0xbdf3a53a	-0.11896749
187	0xbdc37c96	-0.09545247
188	0x3d872e8e	0.066006765
189	0x3d6f6abd	0.058451403
190	0x3d661fa5	0.056182522
191	0x3c9625bc	0.01832854
192	0x3d60c0ff	0.054871555
193	0xbd517c56	-0.051143967
194	0xbdd8a391	-0.10578073
195	0x3d124200	0.035707474
196	0xbd9cdaf8	-0.076589525
197	0xbde38fb3	-0.11111393
198	0xbd1b54de	-0.037922733
199	0xba391106	-0.00070597266
200	0x3d0687c6	0.032844327
201	0xbd70104f	-0.058609303
202	0xbd82aaf9	-0.06380267
203	0x3c162f34	0.009166528
204	0xbd9b5b31	-0.07585753
205	0xbd2b3376	-0.041797124
206	0x3da82d13	0.08211722
207	0xbd20b248	-0.039232522
208	0x3df4e052	0.11956848
209	0x3e03b053	0.12860231
210	0x3c79f467	0.015256024
211	0x3d75925c	0.059954032
212	0x3d502ed8	0.050825924
213	0xbc8054c0	-0.015665412
214	0xbcabf5be	-0.020991202
215	0x3c2d7a5f	0.010588258
216	0x3d1a4378	0.037662
217	0x3dd05ad7	0.10173576
218	0xbc8ed227	-0.017434193
219	0xbd3d4b67	-0.046214487
220	0xbcc379f7	-0.023861868
221	0xbcd1f7e8	-0.025630906
222	0x3c0a3822	0.008436235
223	0x3d83af98	0.06429976
224	0x3d8feefa	0.07028003
225	0x3beae4b2	0.007168376
226	0xbdbe269a	-0.092847064
227	0xbd67b9c6	-0.05657365
228	0x3b31df0d	0.0027141005
229	0xbd2ea1d9	-0.04263482
230	0x3c0e0b3e	0.0086696725
231	0xbda377ac	-0.0798181
232	0x3c758ab0	0.014986679
233	0xbda4affb	-0.08041378
234	0xbd889883	-0.06669714
235	0xbdb37a32	-0.08763541
236	0x3dbc1950	0.091845155
237	0xbdcc6c73	-0.099816225
238	0x3da2d9ef	0.07951724
239	0xbb683a9c	-0.0035435325
240	0xbc48d9d8	-0.012258969
241	0x3d8706f3	0.06593122
242	0xbc1f9ff4	-0.009742726
243	0x3d89ec88	0.06734568
244	0x3da486ee	0.08033548
245	0xbdbe0004	-0.09277347
246	0x3d5bc0dd	0.053650726
247	0x3d0498de	0.032372348
248	0x3ca4bd81	0.020109894
249	0x3d10f136	0.035386287
250	0x3d4311b3	0.0476243
251	0xbcebe7e7	-0.028797103
252	0xbcf19da5	-0.029494116
253	0x3e05cb11	0.13065745
254	0x3dd05e26	0.101742074
255	0xbcd85994	-0.026409902

conv_block_1.2.bias f4 [10]
0	0x3d82bbe7	0.06383496
1	0x3c2a7303	0.0104033975
2	0xbdd417ab	-0.10356077
3	0xbdbaf3fc	-0.091285676
4	0x3cc97814	0.02459339
5	0xbd3e3c47	-0.046444204
6	0xbc8cb503	-0.017176157
7	0xbce7806b	-0.028259477
8	0x3bfe2019	0.007755291
9	0x3d357951	0.04430515

conv_block_2.0.weight f4 [10, 10, 3, 3]
0	0xbdb73531	-0.08945692
1	0x3c9eef5e	0.019401249
2	0x3d56dbbc	0.05245565
3	0xbe0a0367	-0.1347786
4	0xbe4f020a	-0.20215622
5	0xbe08f382	-0.13374141
6	0xbdab490e	-0.083635435
7	0xbd88e055	-0.06683413
8	0xbc3c644f	-0.011498525
9	0xbbbc6978	-0.0057498775
10	0xbd1da85d	-0.03849064
11	0xbd03e6c3	-0.032202493
12	0xbc82f1dc	-0.015984468
13	0x3e017d8e	0.12645552
14	0xbcfd24cd	-0.030901337
15	0xbd7d1093	-0.061783385
16	0x3d6cf519	0.05785093
17	0xbb0b287a	-0.0021233843
18	0x3db44098	0.08801383
19	0x3d2830b9	0.04106209
20	0x3dc6c050	0.097046494
21	0xbda0c570	-0.07850158
22	0x3d5aa7a0	0.053382516
23	0x3dc0b9d7	0.09410446
24	0xbd68acf3	-0.056805562
25	0x3e260b31	0.16215207
26	0x3dae7193	0.08517756
27	0xbc1b5971	-0.009481774
28	0x3d90635d	0.07050202
29	0xbd36ae0a	-0.04459957
30	0xbd8a66ab	-0.067578636
31	0x3d3b8c01	0.045787815
32	0x3cf59b27	0.029981209
33	0xbd849f31	-0.06475676
34	0x3d839d45	0.06426481
35	0xbdc7c300	-0.0975399
36	0x3d67121b	0.05641375
37	0x3dd29401	0.10282136
38	0x3d2c6497	0.042088117
39	0xbde5fd84	-0.11229995
40	0x3d466d69	0.048444185
41	0x3cfc3e9e	0.030791577
42	0x3c8534be	0.016260501
43	0x3ce8af6b	0.028403958
44	0x3d9ef570	0.07761657
45	0xbcb35797	-0.021892352
46	0xbbea79e6	-0.0071556447
47	0x3d731de0	0.059354663
48	0x3cb42bf3	0.021993613
49	0x3df527c2	0.11970474
50	0xbcdeabb7	-0.02718149
51	0x3cad1f7a	0.021133173
52	0x3d19cfdd	0.03755175
53	0xbc8af556	-0.016962688
54	0x3da07fb3	0.07836857
55	0x3c992e73	0.018698907
56	0xbdc05868	-0.09391862
57	0xbb32660f	-0.0027221476
58	0xbd30ff35	-0.043212134
59	0x3c4fcfcf	0.012683823
60	0xbbe68c6e	-0.0070357835
61	0xbdd09aa1	-0.10185743
62	0xbcaa3e08	-0.020781532
63	0xbc2bc5ee	-0.010484202
64	0xbd014587	-0.031560447
65	0x3dc3ebca	0.095664576
66	0xbcbc54e9	-0.022989707
67	0x3d898699	0.067151256
68	0x3ccf3bdd	0.0252971
69	0xbdb88956	-0.0901057
70	0x3cba8bc0	0.022771716
71	0x3dafdf00	0.08587456
72	0xbd7ea826	-0.062172078
73	0xbd708e70	-0.05872959
74	0x3de80ba0	0.11330342
75	0x3d90313f	0.07040643
76	0xbd7c38a9	-0.061577473
77	0x3d9d84a7	0.07691317
78	0xbc9d5ce5	-0.019209335
79	0xbdde3edf	-0.108518355
80	0x3bf38e0f	0.007432706
81	0x3d3a966b	0.045553606
82	0xbcd2c84c	-0.025730275
83	0x3cecabaf	0.028890459
84	0xbd9d2332	-0.076727286
85	0x3dace4e6	0.084420964
86	0x3db150b9	0.08657975
87	0x3d77ffa8	0.060546547
88	0x3c9d8fba	0.019233573
89	0x3ce603b6	0.028077941
90	0xbe1f1c1b	-0.15538065
91	0xbdb46a43	-0.0880933
92	0xbc998f20	-0.018745005
93	0xbdd5067d	-0.10401628
94	0xbe132bcd	-0.14372177
95	0x3d4d55ba	0.050130583
96	0x3d5c255d	0.05374657
97	0xbdd321d5	-0.10309187
98	0x3c7ec2e2	0.015549393
99	0x3d8b7219	0.06808872
100	0x3def6c84	0.116906196
101	0x3d83a660	0.06428218
102	0x3de841a3	0.11340644
103	0xbc8f3c6e	-0.01748487
104	0x3da10cca	0.078637674
105	0x3db07c0d	0.08617411
106	0xbdc8778a	-0.09788425
107	0xbda4f255	-0.08054034
108	0x3c41c40e	0.011826528
109	0x3bfda5df	0.0077407206
110	0xbd9b4e49	-0.07583291
111	0xbd096bbb	-0.033550005
112	0xbd5e70a3	-0.054306637
113	0x3d23ef7e	0.04002332
114	0xbd05164a	-0.03249196
115	0x3d8fd3ef	0.07022845
116	0x3dbbb8af	0.09166085
117	0xbd9ae844	-0.075638324
118	0x3b317347	0.0027076767
119	0x3c1dda41	0.009634555
120	0x3ca2203a	0.019790757
121	0x3dc67563	0.096903585
122	0x3d00dcc7	0.03146055
123	0xbcba6b17	-0.022756143
124	0x3db0d330	0.08634031
125	0xbd4ad6bd	-0.049521197
126	0x3c0af748	0.008481808
127	0x3d24b9ad	0.040216137
128	0xbd86bf8c	-0.065795034
129	0x3cf87283	0.030328041
130	0xbc787fec	-0.015167218
131	0x3ce6c45d	0.028169805
132	0x3d68a0bd	0.056793917
133	0x3d7ff9a4	0.062493935
134	0xbcfa6759	-0.030566858
135	0xbddf9ec6	-0.109189555
136	0x3dcdb6b1	0.10044611
137	0x3df8ceb6	0.12148802
138	0xbdbdc252	-0.09265579
139	0x3dde1b99	0.108451076
140	0xbdc21647	-0.09476905
141	0x3b857a60	0.004073426
142	0x3dd2b2e8	0.1028803
143	0x3d8ea9c9	0.06965978
144	0xbdb298b9	-0.08720536
145	0x3d7c6d54	0.0616277
146	0x3d69e48b	0.05710272
147	0xbb2743b9	-0.0025522544
148	0x3dc9f9d5	0.09862105
149	0xbd476816	-0.04868325
150	0xbcc9f7cc	-0.024654292
151	0xbd4a1649	-0.04933766
152	0x3c98a252	0.018632088
153	0x3ce96ed4	0.02849523
154	0x3c31d808	0.0108547285
155	0xbd72401d	-0.059143174
156	0xbd2c7bf9	-0.042110417
157	0x3d2b957e	0.041890614
158	0xbdbecdb7	-0.09316581
159	0xbc8769c4	-0.016529925
160	0xbabc116a	-0.0014348452
161	0xbd327561	-0.043568972
162	0x3d47c509	0.04877189
163	0x3ba19f91	0.004932352
164	0x3d908eba	0.07058473
165	0x3b004ce1	0.0019577073
166	0xbd6fc6cc	-0.058539197
167	0x3d9e8a2d	0.07741199
168	0x3c407c37	0.011748365
169	0xbd025c74	-0.03182645
170	0xbda734ed	-0.08164392
171	0x3d2f21d7	0.04275688
172	0xbdbc5301	-0.09195519
173	0x3cba6f52	0.02275816
174	0x3d7afb00	0.06127453
175	0xbdaf6a96	-0.085652515
176	0xbd96dd37	-0.07366412
177	0xbdab8912	-0.083757535
178	0x3da8d9d7	0.08244675
179	0x3db0df62	0.08636357
180	0xbde92827	-0.113846116
181	0x3c287a0e	0.010283006
182	0xbda10823	-0.0786288
183	0xbe591022	-0.2119756
184	0xbd188c1d	-0.037242997
185	0x3c0a87ce	0.00845523
186	0x3d8cd830	0.06877172
187	0xbc50774c	-0.012723755
188	0x3dc36e64	0.0954254
189	0x3da2a4a9	0.07941563
190	0x3d9f129f	0.077672236
191	0xbdef22da	-0.11676569
192	0x3dc4ea82	0.09615041
193	0xbdbee69b	-0.09321328
194	0x3da486b2	0.080335036
195	0xbc91462e	-0.01773366
196	0xbdee7b87	-0.11644655
197	0xb9f81abc	-0.00047322165
198	0xbcf3fcb8	-0.029783592
199	0xbdd370db	-0.1032426
200	0xbd3ed33d	-0.04658817
201	0xba84d3b5	-0.0010133894
202	0x3d283ef8	0.041075677
203	0xbd03ba66	-0.032160185
204	0x3cc99cac	0.02461084
205	0x3cfe1b96	0.031019013
206	0xbbaac293	-0.0052111833
207	0x3c698e67	0.014255143
208	0xbd8577a8	-0.06516963
209	0xbd902c0f	-0.070396535
210	0xbcb58168	-0.022156432
211	0xbdd9fdfb	-0.10644146
212	0xbd39d37e	-0.04536771
213	0x3b455b6a	0.0030114301
214	0xbd67b778	-0.056571454
215	0xbd1a4d65	-0.037671465
216	0x3d844791	0.06458963
217	0x3d371031	0.044693176
218	0xbcdbe641	-0.026843192
219	0x3dade695	0.08491246
220	0x3d5cf83c	0.053947672
221	0x3d5cd6fc	0.053915963
222	0x3d9b2b67	0.07576638
223	0xbb72dcb9	-0.003705783
224	0xbd4a80d0	-0.04943925
225	0x3cbda630	0.023150533
226	0xbc154143	-0.009109798
227	0x3cb8df55	0.02256743
228	0x3d0fe45f	0.0351299
229	0x3d5ecd5f	0.054395076
230	0x3d24c4cc	0.040226743
231	0x3da5ad72	0.08089723
232	0x3c0a6184	0.008446101
233	0xbd8da81e	-0.069168314
234	0x3d31f37f	0.043445107
235	0xbd90a9d9	-0.07063646
236	0xbc042bd6	-0.008067092
237	0xbd056708	-0.03256896
238	0xbd25bf6e	-0.040465765
239	0xbd1c0a3c	-0.038095698
240	0x3dcb026e	0.09912573
241	0x3d707bb4	0.058711722
242	0x3cf22fd0	0.029563814
243	0x3dc35fcd	0.09539757
244	0xbdcb8557	-0.09937542
245	0x3c5cbcdb	0.013472761
246	0x3d80e40e	0.06293498
247	0x3d854269	0.06506807
248	0xbdb53c8a	-0.088494375
249	0x3d04fd4f	0.032468136
250	0xbd872911	-0.0659963
251	0xbc310fae	-0.010806961
252	0xbc179f99	-0.00925436
253	0xbd85dfa1	-0.065367945
254	0xbda3f8b1	-0.080064185
255	0xbd84f651	-0.064922936

conv_block_2.0.bias f4 [10]
0	0x3d62dc05	0.05538561
1	0x3c3129a4	0.010813151
2	0x3cc2e039	0.023788558
3	0x3da19921	0.07890535
4	0xbd85e7e5	-0.06538371
5	0xbd80cc16	-0.06288926
6	0x3d837fc9	0.064208575
7	0xbb53fc52	-0.003234644
8	0x3c028360	0.007965893
9	0xbdbd9ff4	-0.09259024

conv_block_2.2.weight f4 [10, 10, 3, 3]
0	0x3da62f38	0.08114475
1	0xbc77e763	-0.0151308505
2	0xbd12b6e0	-0.035818934
3	0xbd7dd8fc	-0.06197451
4	0xbd28618c	-0.041108653
5	0x3cfa2f91	0.03054026
6	0xbcfc1e76	-0.030776244
7	0x3d775f82	0.060393818
8	0xbd06393c	-0.032769427
9	0xbd1fd70e	-0.03902345
10	0x3d1e4a48	0.03864506
11	0xbcbe09ae	-0.023197975
12	0xbd49055a	-0.04907737
13	0x3c66776d	0.014066559
14	0x3d802e27	0.06258803
15	0xbbbe19f2	-0.0058014328
16	0x3d3fffd9	0.046874855
17	0x3d278a3f	0.040903326
18	0xbd0a4dce	-0.033765607
19	0xbcb99c4b	-0.022657534
20	0xbca746c7	-0.020419491
21	0xbd2fb881	-0.042900566
22	0x3d30ec46	0.043194078
23	0x3d511fde	0.05105578
24	0xbc60b833	-0.0137157915
25	0xbd6a8547	-0.05725601
26	0x3d34ef65	0.044173617
27	0xbdb3bec7	-0.08776622
28	0x3d9553d3	0.07291379
29	0x3d47f90a	0.048821487
30	0x3d7ec74e	0.06220179
31	0xbc513d03	-0.012770894
32	0xbdb0a33d	-0.08624885
33	0x3d828951	0.06373847
34	0xbd6df3ba	-0.058093764
35	0x3c6c2f66	0.014415598
36	0x3d749c04	0.0597191
37	0xbdc9be61	-0.09850765
38	0x3be53970	0.0069953725
39	0xbd195f0a	-0.037444152
40	0x3d80c35e	0.06287263
41	0xbd620317	-0.055178728
42	0x3d83131f	0.064001314
43	0x3d869d7a	0.06573005
44	0x3d6e34d6	0.058155857
45	0x3de4c7f0	0.111709476
46	0x3d2502ec	0.04028599
47	0xbd91b4d4	-0.07114568
48	0x3da94e70	0.08266914
49	0x3d0b70e3	0.034043204
50	0xbcb5b13f	-0.022179244
51	0xbd9bade4	-0.076015264
52	0xbd44b424	-0.048023358
53	0xbcdb43ae	-0.02676567
54	0x3dcf0c98	0.10109824
55	0x3d92dff2	0.071716204
56	0x3d9460ec	0.07245049
57	0x3d81eeb3	0.063443564
58	0xbd9b8d5c	-0.075953215
59	0xbd6a6f52	-0.05723507
60	0xbd761551	-0.060078923
61	0xbd806c57	-0.06270664
62	0x3d7f5c03	0.06234361
63	0x3c942ed2	0.018088732
64	0x3d8b88ff	0.06813239
65	0xbca8cfaf	-0.020606844
66	0xbdd765e4	-0.10517481
67	0xbd35bd50	-0.044369996
68	0x3d647647	0.05577686
69	0x3d58f7a0	0.05297053
70	0x3ca7fa5e	0.020505127
71	0xbd403313	-0.04692371
72	0xbdaf97b2	-0.085738555
73	0xbd820be2	-0.06349923
74	0x3d396467	0.045261767
75	0xbd8129ed	-0.06306825
76	0x3d2c7673	0.04210515
77	0x3c25bebe	0.010116277
78	0xbd27f015	-0.041000444
79	0x3d896238	0.06708187
80	0x3c837325	0.016046116
81	0xbb65816f	-0.0035019775
82	0xbd24762c	-0.04015176
83	0xbdccc6a0	-0.09998822
84	0x3c8b3b31	0.016995998
85	0x3cf98754	0.030460037
86	0xbd59619b	-0.0530716
87	0x3d846e06	0.06466298
88	0xbdc1a79a	-0.094557956
89	0xbdd019fc	-0.10161206
90	0xbe0ef5b9	-0.13960923
91	0xbdc8f042	-0.098114505
92	0xbd86021b	-0.0654337
93	0xbdb11dd0	-0.086482644
94	0xbc4f4e7a	-0.012652988
95	0xbe1268d0	-0.14297795
96	0xbc9aa23e	-0.018876191
97	0xbd2b18e8	-0.0417718
98	0xbaf73cbc	-0.0018862705
99	0x3da63260	0.08115077
100	0x3cce0433	0.025148487
101	0xbdcc4821	-0.09974695
102	0xbe08e646	-0.13369092
103	0xbdfa615a	-0.122255996
104	0xbe14b398	-0.14521635
105	0xbc75fb9d	-0.015013603
106	0xbdd05594	-0.10172573
107	0xbc35471a	-0.011064315
108	0x3d5f1e35	0.054472167
109	0xbcf441b0	-0.029816478
110	0xbc99034e	-0.018678334
111	0x3cb52f58	0.022117302
112	0xbd3363ba	-0.04379628
113	0x3d338bf1	0.04383463
114	0xbdc27663	-0.09495237
115	0x3cef9f0f	0.02925065
116	0xbdd6503d	-0.10464523
117	0xbdfa8230	-0.122318625
118	0xbd71475c	-0.058905944
119	0x3c5f1867	0.013616658
120	0x3cde55f0	0.027140588
121	0xbce78759	-0.028262781
122	0xbd80b9b3	-0.06285419
123	0xbd5d5df9	-0.054044697
124	0xbdca3a89	-0.09874446
125	0xbd80aca1	-0.06282926
126	0xbbeea76b	-0.0072831414
127	0x3db7b44a	0.08969934
128	0x3d7caed1	0.061690155
129	0xbdacc039	-0.08435101
130	0x3c4af19a	0.012386704
131	0xbd589e30	-0.052885234
132	0xbc891323	-0.016732758
133	0xbdab92b5	-0.083775915
134	0x3ce07acf	0.02740231
135	0xbd53cc94	-0.051708773
136	0x3da32a18	0.07967013
137	0x3db121db	0.086490355
138	0xbd949a06	-0.0725594
139	0xbdcb3dd3	-0.099239014
140	0x3d20fa7a	0.039301373
141	0xbcf10d0e	-0.02942517
142	0x3cdf3171	0.027245255
143	0xbdc41614	-0.095745236
144	0xbc78591d	-0.015157965
145	0xbe1b3437	-0.15156637
146	0xbdd9feee	-0.10644327
147	0xbdfd1dfb	-0.12359234
148	0xbcbd8b97	-0.02313785
149	0xbd88aafc	-0.06673238
150	0xbe129656	-0.14315161
151	0xbddd7f70	-0.108153224
152	0xbdb7ea16	-0.08980195
153	0xbde6a179	-0.11261267
154	0xba350a60	-0.0006906148
155	0x3c9664b2	0.018358562
156	0xbcd7a5e3	-0.026324218
157	0xbd62c05f	-0.05535924
158	0xbc9b682c	-0.018970571
159	0xbdcbc938	-0.09950489
160	0xbd9a604c	-0.075378984
161	0xbc7d091f	-0.015444069
162	0x3e09c827	0.13455258
163	0xbc00c4c3	-0.007859412
164	0x3d2c4797	0.04206046
165	0xbc9893b0	-0.01862511
166	0xbcfdc60f	-0.03097823
167	0xbdedea0a	-0.11616905
168	0x3d954a18	0.07289523
169	0x3e047d33	0.12938385
170	0x3ccf57f2	0.02531049
171	0x3d892997	0.06697386
172	0x3db09364	0.086218625
173	0x3d567601	0.05235863
174	0x3d5e5ce3	0.054287802
175	0xbdcd8394	-0.10034862
176	0xbdcadab8	-0.099049985
177	0xbda5b1f8	-0.080905855
178	0x3d070c13	0.0329705
179	0xbdbabac5	-0.09117655
180	0xbe33592f	-0.1751449
181	0xbe06f62e	-0.13179848
182	0xbe35477e	-0.17703053
183	0xbd4aa133	-0.049470138
184	0xbd8bc49f	-0.06824612
185	0xbe000d5f	-0.125051
186	0x3e1033a2	0.14082196
187	0x3b14f0a7	0.0022726448
188	0xbbbe8807	-0.0058145556
189	0xbcc5201a	-0.024063159
190	0xbd0fddd0	-0.035123646
191	0xbe066b0e	-0.13126776
192	0xbe1a509a	-0.1506981
193	0xbe555e62	-0.20836785
194	0xbe069ce6	-0.1314579
195	0x3db6a114	0.08917442
196	0x3cada311	0.02119592
197	0xbdc71af4	-0.09721938
198	0xbdfa3154	-0.1221644
199	0xbe1db1ef	-0.15399908
200	0xbdd6ff2f	-0.10497891
201	0xbbe9de87	-0.007137123
202	0xbdfd878b	-0.123793684
203	0xbe02c7cb	-0.12771527
204	0x3be9faa3	0.007140474
205	0xbde5d70f	-0.1122266
206	0xbdf65b9d	-0.120291926
207	0xbe22ae24	-0.15886742
208	0xbddd1ac3	-0.1079612
209	0x3c8f6473	0.017503953
210	0xbce51ec3	-0.02796877
211	0xbdbae3b6	-0.09125464
212	0xbd5a7540	-0.053334475
213	0x3c6cc5f7	0.014451495
214	0xbd795dfa	-0.06088064
215	0xbe1df3f5	-0.15425093
216	0xbd850158	-0.06494397
217	0xbd92a84d	-0.07161007
218	0xbb2f699c	-0.002676583
219	0xbdc59d80	-0.09649181
220	0xbbed0738	-0.0072335266
221	0xbd1de196	-0.038545214
222	0x3dd3db3b	0.10344549
223	0x3daf7892	0.08567919
224	0x3d7ac98a	0.06122736
225	0x3cf77750	0.03020826
226	0xbd0bca7b	-0.034128647
227	0x3d4666b1	0.048437778
228	0xbd952818	-0.07283038
229	0xbd382553	-0.04495747
230	0xbd3a5ba9	-0.04549757
231	0xbccae2e9	-0.024766402
232	0xbdec33ea	-0.11533339
233	0x3d2a60ea	0.04159633
234	0x39dba7b7	0.00041895892
235	0xbe1d1fa7	-0.15344106
236	0xbd77f76b	-0.06053869
237	0xbd53edc9	-0.05174044
238	0xbd961b6d	-0.0732945
239	0xbd911640	-0.07084322
240	0x3e076c50	0.13224912
241	0x3d05a630	0.032629192
242	0xbd8bddfc	-0.068294495
243	0xbd3ff9a8	-0.04686895
244	0x3d2c63f7	0.04208752
245	0x3b577bbf	0.0032880155
246	0x3bf673d3	0.0075211315
247	0xbba7dedd	-0.005123003
248	0xbd68f25a	-0.05687175
249	0xbcf5290c	-0.0299268
250	0xbd0fb756	-0.035086952
251	0xb9aed88e	-0.00033349212
252	0x3cf3aad4	0.029744543
253	0x3db74660	0.0894897
254	0xbd1af716	-0.037833296
255	0x3d28eca7	0.041241314

conv_block_2.2.bias f4 [10]
0	0x3d36109e	0.04444944
1	0x3e25ccf4	0.16191465
2	0x3e025016	0.12725863
3	0xbdc4a4c1	-0.09601737
4	0xbaebc82d	-0.0017988734
5	0xbcf3e127	-0.029770447
6	0xbd3e5a67	-0.046472933
7	0x3dbbc546	0.09168486
8	0xbd865b1f	-0.06560349
9	0xbd9a9b0b	-0.07549103

classifier.1.weight f4 [3, 1690]
0	0x3990958c	0.0002757724
1	0x3d3ef5a0	0.046620965
2	0x3d0adc8e	0.033901744
3	0x3d3394f5	0.04384323
4	0x3c8f84b8	0.01751934
5	0xbc9b9cdb	-0.018995693
6	0x3c7eb58f	0.015546217
7	0x3ca9de0f	0.020735769
8	0x3c64e487	0.013970501
9	0x3c4ec6b0	0.012620613
10	0xbbdf46d0	-0.0068138614
11	0x3c249780	0.010045886
12	0x3cf10336	0.029420476
13	0x3bbfef4b	0.0058573834
14	0x3ccc1f5f	0.024917303
15	0x3c1a7677	0.009427658
16	0x3c6e3e9b	0.0145412935
17	0xbc365555	-0.011128743
18	0xbd13ccd9	-0.03608403
19	0xbcdcf757	-0.02697341
20	0xbada536c	-0.0016656942
21	0xbc4c5cd0	-0.0124733
22	0xbb44fe69	-0.0030058867
23	0xbc8cb67f	-0.017176865
24	0x3cbf2f1c	0.023337893
25	0x3ab2b4da	0.001363422
26	0x3a0c6695	0.0005355862
27	0x3a5d49a2	0.0008441453
28	0xbcc345ef	-0.023837058
29	0xbc924d64	-0.017859168
30	0xbc2fcf07	-0.0107305115
31	0xbbe95169	-0.0071203006
32	0xbd027f6a	-0.031859793
33	0xbc0ccbdb	-0.008593525
34	0xbd03c266	-0.032167815
35	0x3b8ebe8f	0.0043562124
36	0x3bfbcb4f	0.0076841484
37	0xbc7ea17e	-0.015541432
38	0xbcbf4d19	-0.023352193
39	0xbce814c3	-0.028330212
40	0x3c0a5c07	0.008444793
41	0x3ca1b3a3	0.019738978
42	0x3cce84ea	0.025209863
43	0x3beb6ffe	0.0071849814
44	0x3cba2821	0.022724213
45	0x3d0b705b	0.034042697
46	0x3bb14c3a	0.0054106982
47	0xbc075804	-0.008260731
48	0xbcadc4c5	-0.021211991
49	0x3c5f8243	0.013641897
50	0xb9d72abf	-0.00041039844
51	0xb9454e2a	-0.00018816502
52	0xbc20e4ed	-0.009820205
53	0x3cb96db7	0.022635324
54	0xbba0a413	-0.0049023717
55	0xba9e10a9	-0.0012059408
56	0x3cf7fcb1	0.03027186
57	0xb9d3747b	-0.0004033184
58	0x3d629336	0.055316173
59	0x3d0f1679	0.03493354
60	0x3c0386e1	0.008027763
61	0x3d137a3b	0.03600524
62	0x3c301b98	0.010748766
63	0x3bf1203f	0.0073585804
64	0xbcbf3754	-0.023341812
65	0xbccd2ee7	-0.025046779
66	0x3c8e4de5	0.017371127
67	0x3d376170	0.044770658
68	0x3c9db866	0.019252967
69	0x3abcab29	0.0014394271
70	0x3cb3493f	0.021885512
71	0x3d2a440b	0.041568797
72	0x3c0ceadf	0.0086009195
73	0xbbecf5d1	-0.007231452
74	0xbb272ee4	-0.0025510127
75	0x3c4820a6	0.012214815
76	0x3c89f064	0.01683826
77	0x3be154ce	0.0068765646
78	0x3c59c9d3	0.013292748
79	0x3cf6f15f	0.030144392
80	0x3d14884a	0.036262788
81	0xbba43c8c	-0.0050121006
82	0xbbadaf88	-0.005300466
83	0x3cb3e232	0.021958444
84	0x3cb61eb6	0.022231441
85	0x3c59ecd6	0.013301095
86	0xbc74389c	-0.014906075
87	0x3d0862c0	0.0332973
88	0x3a21ef40	0.00061773136
89	0x3cac4a8f	0.021031646
90	0x3bab3799	0.0052251336
91	0x3cd1ce04	0.025610931
92	0xbbb4b5d2	-0.0055148387
93	0x3c1be318	0.009514593
94	0x3cdb0547	0.026735915
95	0x3cfcd088	0.030861154
96	0x3c24eacf	0.010065748
97	0x3d3d1512	0.046162672
98	0x3cad27b8	0.021137103
99	0x3be74793	0.007058093
100	0x3c6033a1	0.013684184
101	0x3cb1a22e	0.021683779
102	0x3c42e507	0.011895425
103	0x3c956c4f	0.018240122
104	0x3b4c987a	0.0031218813
105	0x3c855e6f	0.016280381
106	0x3c2b6009	0.010459908
107	0x3d6ed9cb	0.058313172
108	0x3ce28380	0.027650595
109	0x3c77390b	0.015089284
110	0x3d30cafc	0.04316233
111	0x3d12150d	0.035664607
112	0x3d0c3045	0.03422572
113	0x3c2a537a	0.010395879
114	0x3cdf4a09	0.027256982
115	0x3baf9885	0.005358758
116	0xbaeefb40	-0.0018232837
117	0x3bcc558d	0.0062357844
118	0x3d07a0b9	0.03311226
119	0x3d607af8	0.054804772
120	0x3cfcb349	0.030847209
121	0x3d0ae326	0.033908032
122	0x3d34bf71	0.044127885
123	0x3ca35ae8	0.019940808
124	0x3cf7a1ac	0.030228458
125	0x3c7012aa	0.014652887
126	0x3cc72cc0	0.02431333
127	0xbad00121	-0.0015869477
128	0x3c4302c8	0.011902519
129	0xba77e07c	-0.0009455753
130	0xbcd5728d	-0.026055599
131	0xbc4c2f99	-0.01246252
132	0xbb045753	-0.002019365
133	0x3bcbf9f1	0.0062248637
134	0x3cc1a590	0.023638517
135	0x3cdaf24d	0.026726866
136	0x3d4d97eb	0.05019371
137	0x3c062677	0.008187882
138	0x3cea7584	0.028620489
139	0xbba30b36	-0.0049757017
140	0x3c1574c7	0.00912208
141	0x3caf10ec	0.021370374
142	0xbc26835f	-0.010163157
143	0x3bd58428	0.0065159984
144	0xbcadee88	-0.021231905
145	0x3ca72bd6	0.020406645
146	0x3c0c4a16	0.008562585
147	0x3d213af7	0.039362874
148	0x3d25de69	0.04049531
149	0x3c22bebe	0.009933172
150	0x3c4efdf8	0.012633793
151	0x3cacec50	0.021108776
152	0xbbbb1b0e	-0.0057100123
153	0x3d28f3de	0.041248195
154	0x3c19a513	0.009377736
155	0x3d052abc	0.032511458
156	0xbd0e99b5	-0.034814555
157	0xbd08e2de	-0.033419482
158	0xbbf8f4e5	-0.007597553
159	0xbc98d41b	-0.018655827
160	0x3cf74e58	0.030188724
161	0x3cef18b0	0.029186577
162	0x3d1ad95e	0.037804954
163	0xbc27e887	-0.01024831
164	0x3c6bc727	0.014390743
165	0x3cb32c05	0.021871576
166	0x3d2f8e6c	0.042860433
167	0x3bd14e56	0.006387512
168	0x3c8bcda2	0.017065827
169	0xbd6d113a	-0.057877757
170	0xbd97c009	-0.07409675
171	0xbdb74457	-0.08948582
172	0xbd39d44d	-0.04536848
173	0xbcbc73f8	-0.023004517
174	0x3becbbca	0.0072245346
175	0x3c843428	0.016138151
176	0x3c81aeb5	0.015830377
177	0xbce2b4a6	-0.02767403
178	0xbd7536fe	-0.059866898
179	0xbd4f725b	-0.050646167
180	0xbdd74f23	-0.10513141
181	0xbd5de3b2	-0.054172225
182	0xbd8466a1	-0.064648874
183	0x3cac061b	0.020999005
184	0xbce76e02	-0.028250698
185	0xbd4282be	-0.047487967
186	0xbd626f9d	-0.055282224
187	0xbd615bed	-0.055019308
188	0x3d2fcd77	0.042920556
189	0x3ce1fad4	0.027585424
190	0xbd24357c	-0.04009007
191	0xbd1819b6	-0.037133895
192	0xbc1aef38	-0.009456448
193	0xbcbb2da2	-0.022848908
194	0xbc8a2880	-0.016865015
195	0x3b3dfca2	0.0028989692
196	0x3cafd98d	0.021466041
197	0x3c2f7684	0.010709409
198	0xbd86472c	-0.06556544
199	0xbdb8151d	-0.08988402
200	0xbd8a53fe	-0.067543015
201	0x3be4eed7	0.0069864797
202	0xbc6efb9d	-0.0145863565
203	0xbd7ad835	-0.061241347
204	0xbd2a1eeb	-0.041533392
205	0xbcecd2de	-0.028909143
206	0x3c51beda	0.01280185
207	0x3db6f0ae	0.08932625
208	0xbcfc1d0b	-0.030775568
209	0xbd37f051	-0.044906918
210	0xbc9f7fd1	-0.019470127
211	0xbcd935d3	-0.026514923
212	0xbd7609da	-0.06006799
213	0xbe14a059	-0.14514293
214	0xbdf21102	-0.1181965
215	0xbdafb57b	-0.085795365
216	0xbdef8e18	-0.11697024
217	0xbdb54d01	-0.08852578
218	0xbdf6aa1d	-0.12044165
219	0xbd24c6e5	-0.040228743
220	0x3d410dce	0.047132306
221	0xbc34ecad	-0.011042756
222	0xbd06e863	-0.032936465
223	0x3ca4b16d	0.020104134
224	0xbc9eb099	-0.019371318
225	0xbd75d8bb	-0.060021143
226	0xbe028367	-0.12745439
227	0xbe0b4cca	-0.13603511
228	0xbdab4c1f	-0.08364128
229	0xbd79cc1e	-0.060985677
230	0xbde2b0e4	-0.110688955
231	0xbdc4ba48	-0.09605843
232	0xbd2cba55	-0.042169888
233	0x3ce9e2d4	0.028550543
234	0x3c84fe0b	0.016234418
235	0xbd142429	-0.036167298
236	0xbdb6c2ff	-0.08923911
237	0xbd9560ec	-0.07293877
238	0xbda8d24b	-0.08243235
239	0xbde6323d	-0.11240051
240	0xbcf90fa3	-0.030402964
241	0xbbc446ba	-0.0059898766
242	0xbd111971	-0.035424653
243	0xbd94fcde	-0.07274793
244	0xbdc4af0f	-0.09603702
245	0xbd051a40	-0.032495737
246	0x3ba868f7	0.005139466
247	0xbd272aa1	-0.04081214
248	0xbc576cc0	-0.013148487
249	0xbcb46408	-0.022020355
250	0xbcc93310	-0.024560481
251	0xbd7ba0eb	-0.06143276
252	0xbd6ab252	-0.057298966
253	0xbdbc9a1a	-0.0920908
254	0xbd9bb578	-0.07602972
255	0xbd9ecb76	-0.07753651

classifier.1.bias f4 [3]
0	0x3da35353	0.07974877
1	0xbd88d2e5	-0.0668085
2	0xbd1e547f	-0.0386548
