models/torch_computer_vision_model_2.pt (torch, 35308 bytes, 10 tensors)

conv_block_1.0.weight f4 [10, 1, 3, 3]
0	0x3eb4d7fc	0.35321033
1	0x3e9e32d5	0.30898157
2	0xbef4a470	-0.47781706
3	0x3e6281f8	0.22119892
4	0x3df05480	0.11734867
5	0x3c5270c4	0.012844268
6	0xbec679db	-0.38764843
7	0x3d9d0c3b	0.076683484
8	0x3ea9bc11	0.33151296
9	0xbeb2ee75	-0.34947553
10	0x3f01f1e7	0.5075974
11	0xbd6a42a6	-0.057192467
12	0x3e7153c0	0.23567104
13	0x3ed1897e	0.4092521
14	0x3df5446c	0.11975941
15	0xbe33e22f	-0.17566751
16	0x3e6108cd	0.21976013
17	0x3e14b439	0.14521874
18	0xbe97f554	-0.29679358
19	0xbdfa76de	-0.12229703
20	0xbcffea86	-0.03123976
21	0xbf2dfb98	-0.67962027
22	0xbf305924	-0.6888602
23	0x3e144eb3	0.14483146
24	0xbf4f91a9	-0.81081635
25	0xbf34bdab	-0.7060191
26	0xbe042a6f	-0.12906812
27	0xbf443d82	-0.76656353
28	0xbf4ce718	-0.8004012
29	0xbf1101a6	-0.5664314
30	0x3e9afc67	0.30270693
31	0xbedc3a1b	-0.4301308
32	0x3ec596aa	0.3859151
33	0x3e90feef	0.283195
34	0xbe2bb363	-0.1676765
35	0x3ebc78c8	0.368109
36	0xbe07ca51	-0.13260771
37	0x3e85e1e4	0.26148903
38	0xbe3acf7f	-0.18243216
39	0xbe7d73f2	-0.24751261
40	0x3e5d1af2	0.2159231
41	0xbe87af91	-0.26501134
42	0xbdae84f7	-0.08521455
43	0x3e9284b8	0.2861688
44	0x3cb03459	0.021509336
45	0xbe18ddb3	-0.14928322
46	0x3e38583b	0.18002407
47	0x3d5b777e	0.053580754
48	0x3e284ac4	0.16434771
49	0xbe523628	-0.20528471
50	0xbea960d1	-0.33081678
51	0xbe05d0ed	-0.1306798
52	0xbe839c31	-0.25705102
53	0x3e864ddd	0.2623128
54	0x3e13d2ef	0.14435934
55	0x3e3dfc40	0.18553257
56	0x3d50b694	0.05095537
57	0x3d305ff4	0.043060258
58	0x3e3871d3	0.1801217
59	0xbe667b0e	-0.22507879
60	0xbd1c31de	-0.038133495
61	0xbee335ff	-0.44377133
62	0xbd806011	-0.06268323
63	0xbda0157a	-0.07816596
64	0x3d35f846	0.044426225
65	0xbe27ab34	-0.16373903
66	0x3eb356a0	0.35027027
67	0xbe4d1523	-0.20027594
68	0xbe94176a	-0.28924114
69	0xbe425518	-0.18977773
70	0x3ec8e58b	0.39237627
71	0x3e4836f2	0.1955221
72	0x3ee7be27	0.45262262
73	0xbe96210f	-0.29322097
74	0xbeb5d95d	-0.35517398
75	0xbe67bb30	-0.2263
76	0xbe8303ae	-0.25588745
77	0x3e3b4a83	0.18290143
78	0x3e653276	0.2238253
79	0x3ebd5ca4	0.36984742
80	0xbe3bfb42	-0.18357566
81	0xbe6818d4	-0.22665721
82	0x3e34d370	0.17658782
83	0xbe09f5cb	-0.13472669
84	0x3e4e9284	0.20173079
85	0xbda4ac81	-0.08040715
86	0x3e420805	0.18948372
87	0xbe8496e6	-0.25896376
88	0xbe2c55f3	-0.16829662
89	0x3dcfc73a	0.10145421

conv_block_1.0.bias f4 [10]
0	0x3d773e28	0.06036201
1	0x3d922ed1	0.07137836
2	0x3e2f0631	0.17092206
3	0x3de4659d	0.11152194
4	0xbe5ad410	-0.21369958
5	0xbe4c4a9f	-0.1995034
6	0x3de6e5c4	0.11274293
7	0xbdaa5d66	-0.083185956
8	0xbd194d62	-0.037427314
9	0xbea5ba61	-0.32368758

conv_block_1.2.weight f4 [10, 10, 3, 3]
0	0x3e0ab1d7	0.13544403
1	0x3d635bc6	0.055507444
2	0xbd2d9aa4	-0.042383805
3	0xbda208a7	-0.079118066
4	0xbe11a2d5	-0.14222272
5	0xbe499594	-0.19685966
6	0xbdfc8d57	-0.12331646
7	0xbe239bae	-0.15977356
8	0xbe3ac82d	-0.18240424
9	0xbd8152a8	-0.063145936
10	0x3ca98155	0.020691553
11	0xbe05b84a	-0.13058582
12	0xbe5235c3	-0.20528321
13	0xbea39c00	-0.31954956
14	0xbe9bb0ec	-0.30408418
15	0xbe1c96cc	-0.152919
16	0xbe32934b	-0.17439
17	0xbe5fa9f2	-0.21842173
18	0xbcd5b608	-0.026087776
19	0x3b160449	0.0022890738
20	0x3dc139c6	0.094348475
21	0x3dcf264e	0.10114728
22	0x3e8ca641	0.27470592
23	0x3e47cb83	0.19511227
24	0xbd5937d4	-0.053031757
25	0x3cb062ad	0.021531427
26	0x3daa236c	0.083075374
27	0xbe445013	-0.19171171
28	0xbd2c026f	-0.04199451
29	0xbe4b0a72	-0.19828203
30	0xbcc089f4	-0.023503281
31	0xbd56de6d	-0.052458216
32	0xbe035c77	-0.12828241
33	0x3e2ad771	0.16683747
34	0x3d66d19e	0.05635225
35	0x3d9cab1e	0.076498255
36	0xbe05ecff	-0.13078688
37	0xbdf0e2eb	-0.11762031
38	0xbb2ff0fb	-0.0026846516
39	0xbd78e19b	-0.06076203
40	0x3d0cada3	0.03434528
41	0xbdee13a0	-0.11624837
42	0x3d9e0304	0.07715419
43	0xbd7f5a5c	-0.062342033
44	0xbbcd6b97	-0.006268929
45	0x3cb7a586	0.022417795
46	0x3d5fea05	0.054666538
47	0x3dadb0f1	0.084810145
48	0x3dc538ed	0.09629998
49	0xbdab1f46	-0.08355574
50	0x3cefe2ec	0.02928301
51	0xbd374770	-0.044745862
52	0xbc534494	-0.012894768
53	0xbd9f701c	-0.07785055
54	0x3e336007	0.175171
55	0xbd651eea	-0.055937685
56	0xbcbae12c	-0.022812448
57	0x3e18fc79	0.1494006
58	0x3da4c201	0.08044816
59	0xbd81d62b	-0.063396774
60	0x3d8f4462	0.06995465
61	0xbc9e0da0	-0.019293606
62	0xbdbf70fc	-0.09347722
63	0xbdbade73	-0.0912446
64	0x3d5fd7bb	0.054649096
65	0xbc0c14ff	-0.008549928
66	0xbd4dcfb2	-0.0502469
67	0x3db518c0	0.08842611
68	0x3c832a15	0.016011277
69	0xbd33d0b0	-0.04390019
70	0xbd50dca7	-0.05099168
71	0xbbbbe7c0	-0.005734414
72	0x3d9c5169	0.07632715
73	0xbc25fc33	-0.01013093
74	0xbcf53380	-0.029931784
75	0xbc57a88a	-0.013162741
76	0xbd454cfc	-0.04816912
77	0x3d8c80ab	0.06860479
78	0x3dcde5fc	0.10053632
79	0xbdceee7c	-0.10104081
80	0x3cc36047	0.02384962
81	0x3d5f0cfa	0.054455735
82	0x3c9ca8f9	0.019123541
83	0xbd19b9f5	-0.037530858
84	0x3d615750	0.05501491
85	0x3d62e4c5	0.055393953
86	0x3d217685	0.03941967
87	0xbc97bcc3	-0.018522626
88	0xbce4a482	-0.027910475
89	0x3c38a1c9	0.011269041
90	0xbcac6f3b	-0.021049133
91	0xbccc2d2a	-0.02492388
92	0x3d9704f3	0.07373991
93	0x3dff129e	0.12454723
94	0x3b3072d4	0.0026923912
95	0xbcb953b7	-0.022622926
96	0x3cc1577a	0.023601282
97	0x3c512f41	0.012767614
98	0x3cc4b8b5	0.024013856
99	0x3d0071c7	0.031358507
100	0xbda20afd	-0.07912252
101	0xbd4a1f82	-0.049346454
102	0x3deea069	0.116516896
103	0x3d5f0d24	0.05445589
104	0xb87a45cb	-5.9669645e-05
105	0xbd990064	-0.07470778
106	0xbd7220e6	-0.059113406
107	0xbdca1ddd	-0.09868977
108	0xbd0c05b4	-0.034185126
109	0x3d1176c0	0.03551364
110	0x3d907310	0.070531964
111	0x3d497e03	0.04919244
112	0xbdc19a24	-0.09453228
113	0xbd8511b0	-0.06497514
114	0xbc9d5d09	-0.019209402
115	0x3dd87d0d	0.105707265
116	0x3c39a411	0.01133062
117	0xbc6347ed	-0.013872129
118	0x3d8dd3c8	0.0692516
119	0xbd015baf	-0.031581577
120	0xbd921d6d	-0.07134519
121	0x3d943125	0.07235936
122	0xbd524188	-0.051332027
123	0xbcf9e397	-0.030504031
124	0xbdddb4f1	-0.108255275
125	0x3d9f44ef	0.0777682
126	0x3d926ce7	0.07149678
127	0x3d29eb6a	0.041484274
128	0xbdaa4c57	-0.08315342
129	0xbde6ab5f	-0.11263155
130	0xbdbcb6dd	-0.09214566
131	0x3d890907	0.06691175
132	0x3d34d8f7	0.044152226
133	0x3db8cbd4	0.09023252
134	0x3d4338da	0.04766164
135	0x3cdaca86	0.026707899
136	0xba77bf3d	-0.0009450799
137	0xbda420c2	-0.080140606
138	0xbdb88490	-0.09009659
139	0xbdc9d711	-0.09855474
140	0x3d320f89	0.043471847
141	0xbd544aa6	-0.051829003
142	0xbcadea04	-0.021229751
143	0xbd7841ce	-0.06060963
144	0xbc91e762	-0.017810527
145	0xbd9571f2	-0.07297124
146	0xbd8cc39c	-0.06873247
147	0x3d2ea92c	0.042641804
148	0xbce6685c	-0.028125934
149	0x3d8980a5	0.0671399
150	0xbca7a6b7	-0.020465238
151	0xbd97319c	-0.07382509
152	0xbc28238f	-0.010262384
153	0xbd400b4f	-0.046885785
154	0xbce6547c	-0.028116457
155	0xbdce2929	-0.100664444
156	0x3d8d1903	0.06889536
157	0xbd90d1a0	-0.07071233
158	0x3d565f6c	0.052337095
159	0x3d4ee40e	0.05051046
160	0x3dabcd63	0.08388784
161	0xbd9562da	-0.07294245
162	0x3da9a206	0.08282857
163	0xbd4fba37	-0.050714698
164	0x3d319f0b	0.043364566
165	0x3dd0a76e	0.10188185
166	0xbb9b1815	-0.0047330954
167	0xb8073829	-3.223881e-05
168	0xbc9d8240	-0.019227147
169	0xbdb0eb90	-0.0863868
170	0x3d6d53f2	0.057941385
171	0xbdd64f5b	-0.104643546
172	0x3d85fdd9	0.06542558
173	0x3da18960	0.0788753
174	0x3dcc3723	0.09971454
175	0xbccbb707	-0.024867548
176	0xbdb15c2c	-0.086601585
177	0x3cc231df	0.023705421
178	0x3d6e835c	0.058230743
179	0xbdd6dc25	-0.10491208
180	0xbcd37733	-0.025813675
181	0xbd8b33e7	-0.06797009
182	0xbc80e675	-0.01573489
183	0xbd44feae	-0.048094444
184	0xbd30eccb	-0.043194573
185	0xbd11e7ee	-0.035621576
186	0xbda382e4	-0.0798395
187	0x3dcc6220	0.09979653
188	0x3db9204a	0.09039362
189	0xbc88682d	-0.016651237
190	0xbc59a6c7	-0.013284392
191	0xbd32f2a0	-0.043688416
192	0xbdb56910	-0.0885793
193	0xbdc6d126	-0.09707861
194	0x3d16750a	0.03673271
195	0xbcd1b0a4	-0.025596924
196	0xbd294989	-0.041329894
197	0x3bce8d0a	0.0063034343
198	0xbd2db28f	-0.042406615
199	0xbd3dc42d	-0.046329666
200	0xbbf54bf6	-0.007485862
201	0xbcdbb5d2	-0.026820097
202	0xbd2fd4c9	-0.042927537
203	0xbd65a6cb	-0.05606727
204	0xbdbc2c49	-0.09188134
205	0x3daef297	0.08542364
206	0xbd29dd69	-0.04147092
207	0x3c72051b	0.014771725
208	0xbd3e34f6	-0.046437226
209	0xba9f023a	-0.0012131401
210	0x3dda21f0	0.10651004
211	0x3d5075df	0.05089366
212	0xbdb11456	-0.08646457
213	0x3d6d1242	0.05787874
214	0x3de7ea14	0.11323944
215	0x3d406476	0.046970807
216	0x3d908c2d	0.070579864
217	0x3dd4a189	0.10382373
218	0xbc8577c5	-0.016292462
219	0x3cd18e89	0.025580661
220	0xbd8f1d99	-0.06988067
221	0xbcb223a3	-0.021745509
222	0x3da4d49c	0.080483645
223	0x3d753d4c	0.05987291
224	0xbd80bc73	-0.06285944
225	0xbdad18dd	-0.08452008
226	0xbd9385ff	-0.07203292
227	0xbdd51309	-0.10404021
228	0xbda69401	-0.08133698
229	0xbcd6eb4a	-0.026235241
230	0x3d92392a	0.071398094
231	0x3c90d521	0.017679753
232	0xbda3ca2f	-0.07997548
233	0xbdad28c0	-0.08455038
234	0x3d30b0fd	0.04313754
235	0xbdb2d42a	-0.08731873
236	0xbcaf7a2a	-0.021420557
237	0x3d3f642c	0.04672639
238	0xbd58a52a	-0.052891888
239	0xbc469540	-0.012120545
240	0xbc82c61c	-0.015963607
241	0xbcd0729d	-0.025445277
242	0xbd5b9fb7	-0.053619113
243	0xbdc0472d	-0.09388576
244	0xbdae81ed	-0.08520875
245	0xbd67b1fc	-0.056566224
246	0x3dd512a2	0.104039446
247	0xbd4950f4	-0.04914947
248	0xbd929177	-0.071566515
249	0x3cfeea17	0.031117482
250	0x3d173f6f	0.03692573
251	0x3d84ac24	0.06478146
252	0x3da0d813	0.07853713
253	0x3d6f0fdb	0.05836473
254	0xbdd684f2	-0.10474576
255	0x3c7de201	0.015495778

conv_block_1.2.bias f4 [10]
0	0x3eb86dce	0.36021274
1	0xbc8b5131	-0.017006489
2	0xbd4d2969	-0.05008832
3	0x3f004d82	0.5011827
4	0xbe04be20	-0.12963152
5	0xbca811e5	-0.020516345
6	0x3de96c48	0.11397606
7	0x3d54bbaa	0.051936783
8	0x3e27c308	0.16382992
9	0x3dc6347c	0.09677979

conv_block_2.0.weight f4 [10, 10, 3, 3]
0	0xbd142376	-0.03616663
1	0xbdf00f2a	-0.11721642
2	0xbd34ff34	-0.044188693
3	0xbd88b000	-0.06674194
4	0xbc9bb94a	-0.019009251
5	0x3dd6ea54	0.10493913
6	0xbdbe80c4	-0.09301904
7	0x3d0a9764	0.033835784
8	0x3db12129	0.08648903
9	0x3d6a1829	0.057151947
10	0xbdc80cd8	-0.09768075
11	0xbd22c38f	-0.03973728
12	0xbdb7811b	-0.08960172
13	0xbd849cb1	-0.06475199
14	0x3d77ffea	0.060546793
15	0xbc3fef64	-0.01171479
16	0x3d306428	0.043064266
17	0xbd6fdce6	-0.058560275
18	0x3c8966d1	0.01677266
19	0xbd8090e1	-0.062776335
20	0x3d5aa4fc	0.053379998
21	0xbd2e2a5e	-0.042520873
22	0xbcc5ce5a	-0.024146248
23	0xbdbc92e4	-0.09207705
24	0x3a86ec4a	0.0010293808
25	0x3dcd7b93	0.100333355
26	0x3d540e4a	0.05177144
27	0xbdf26358	-0.118353546
28	0x3d6d6a11	0.05796248
29	0x3bf8b124	0.007589476
30	0xbdc722af	-0.09723412
31	0x3dcebbf6	0.100944445
32	0xbd066eff	-0.032820698
33	0x3cdc0dc0	0.026862025
34	0xbddd52f3	-0.10806837
35	0xbd666f48	-0.05625847
36	0xbac8c57c	-0.0015317644
37	0x3d551281	0.0520196
38	0x3cb32d59	0.02187221
39	0xbcebb8c7	-0.028774632
40	0x3ddff2d7	0.1093499
41	0xbd15886c	-0.036507055
42	0xbc9893db	-0.01862519
43	0xbd5298dc	-0.05141531
44	0x3dc80272	0.097660914
45	0xbbdbc9e7	-0.0067074182
46	0xbd18c18e	-0.037293963
47	0xbd016254	-0.031587914
48	0x3c9c56f3	0.01908443
49	0xbdb1b0be	-0.08676289
50	0xbdcf4f50	-0.101225495
51	0x3dc802d4	0.097661644
52	0x3df6ad2c	0.12044749
53	0x3de7a96d	0.11311612
54	0xbe1387ca	-0.14407268
55	0x3e167c44	0.14695841
56	0xbdfa5234	-0.1222271
57	0x3dc14113	0.0943624
58	0x3e0b8c5d	0.13627763
59	0x3cf0dfe2	0.02940363
60	0x3e99ff47	0.30077574
61	0x3b716f58	0.0036840048
62	0xbd28fa3b	-0.041254263
63	0x3d1c2c92	0.038128443
64	0x3cbef6cc	0.023311041
65	0x3c08d2c7	0.0083510345
66	0xbca56276	-0.020188551
67	0x3d9b0f96	0.07571332
68	0xbe0bff54	-0.13671619
69	0x3cd0680d	0.02544024
70	0xbd3b6a1c	-0.04575549
71	0xbdb84026	-0.0899661
72	0xbe1cd45f	-0.15315388
73	0xbd16db09	-0.036829982
74	0x3c3c9c70	0.011511907
75	0x3d2a4a0c	0.041574523
76	0x3e01f983	0.12692837
77	0x3d520dc6	0.051282667
78	0xbc94f964	-0.018185325
79	0xbdf77922	-0.12083651
80	0x3cfdbf60	0.030975044
81	0x3e1e9d7d	0.15489765
82	0xbd853278	-0.06503767
83	0x3d6ba349	0.057528768
84	0x3df11ebd	0.11773441
85	0x3d891d3c	0.06695029
86	0xbda24b04	-0.07924464
87	0x3d3dea8b	0.046366256
88	0x3dc223c3	0.09479477
89	0x3d4291c7	0.047502305
90	0xbdeb05f4	-0.11475745
91	0xbe372d0d	-0.1788828
92	0xbe1a3fe5	-0.15063436
93	0x3e115915	0.14194138
94	0xbea8786d	-0.32904378
95	0xbd165a0a	-0.03670696
96	0x3d9ca17d	0.07647989
97	0x3d80e2cc	0.06293258
98	0xbdbb9a5f	-0.09160303
99	0x3d2757fc	0.040855393
100	0xbd274d24	-0.04084505
101	0xbdd68563	-0.1047466
102	0xbd58fa31	-0.052972976
103	0x3d9e9f3a	0.07745214
104	0xbcb72e7f	-0.022361038
105	0x3cbd15a8	0.023081616
106	0xbd38d678	-0.04512641
107	0x3d987f9f	0.07446217
108	0x3d9d297c	0.07673928
109	0x3d334a69	0.043772135
110	0xbd2ea11d	-0.04263412
111	0xbdb47877	-0.08812039
112	0x3b60ba4f	0.0034290736
113	0xbd903ffe	-0.070434555
114	0x3dafddd9	0.08587236
115	0xbdd1b3ff	-0.1023941
116	0x3d460a33	0.04834957
117	0xbe2b3a6e	-0.16721508
118	0x3ea093e2	0.31362826
119	0x3eb10999	0.34577635
120	0xbdafaebd	-0.085782506
121	0x3f56b785	0.8387378
122	0x3e5e3ca8	0.21702826
123	0xbf6c06c3	-0.9219782
124	0xbdaef489	-0.08542735
125	0xbae7e522	-0.0017692188
126	0xbe0e5a06	-0.13901529
127	0x3dad3740	0.08457804
128	0x3d2ca95c	0.0421537
129	0xbe4592ff	-0.19294356
130	0xbbbd7bc2	-0.0057825753
131	0x3d40c360	0.047061324
132	0x3dad07d9	0.084487624
133	0xbe01d370	-0.12678313
134	0xbd83301c	-0.064056605
135	0xbd00c73b	-0.03144
136	0xbe9cf5ab	-0.3065618
137	0x3b4a96d9	0.0030912666
138	0x3e625e83	0.22106366
139	0x3ddc44a3	0.10755279
140	0x3c27c440	0.010239661
141	0x3dea59f2	0.11442937
142	0x3e6ec4e4	0.23317295
143	0x3dc54a0c	0.09633264
144	0xbf0e2d4f	-0.55537885
145	0xbe20d8a4	-0.15707642
146	0x3a536354	0.0008063812
147	0xbf1238dc	-0.5711801
148	0x3ea0becd	0.3139557
149	0x3e88b338	0.26699233
150	0xbe819532	-0.2530914
151	0xbdaf4927	-0.085588746
152	0x3a53400b	0.00080585544
153	0xbd9fafa3	-0.07797172
154	0xbe1922e1	-0.14954711
155	0x3e5b4070	0.214113
156	0xbe5837bb	-0.2111501
157	0x3e6d8f9e	0.23199317
158	0xbd47933d	-0.0487244
159	0xbea0b4a9	-0.31387833
160	0x3b5760eb	0.0032864164
161	0xbd8200eb	-0.06347831
162	0xbed858b3	-0.42255172
163	0x3e17b19d	0.14813848
164	0x3e92f5de	0.28703207
165	0xbe83e93a	-0.25763875
166	0x3ebc0958	0.3672588
167	0x3e9aceec	0.30235994
168	0xbe77ba73	-0.24192218
169	0xbdca8396	-0.09888379
170	0xbda71fc4	-0.08160356
171	0x3ecd4e14	0.4009863
172	0xbe414b0a	-0.18876281
173	0xbe4b4ef0	-0.19854331
174	0x3eb9ce0d	0.36290017
175	0xbd3204cf	-0.043461617
176	0xbe506e46	-0.20354566
177	0xbe46e5e8	-0.1942364
178	0x3e2c693e	0.16837022
179	0x3e0d4d28	0.13798964
180	0xbd4c17be	-0.04982733
181	0x3da77a26	0.08177595
182	0x3d942501	0.072336204
183	0xbdb6ea78	-0.0893144
184	0xbdcbf877	-0.099595
185	0xbdcf00ad	-0.10107551
186	0xbd843f8c	-0.06457433
187	0xbd47d9fc	-0.04879187
188	0xbca3a910	-0.019978076
189	0xbccdf981	-0.025143387
190	0xbd5a9771	-0.053367082
191	0xbd07d8a0	-0.033165574
192	0xbd1bff0b	-0.038085025
193	0x3dd2ec45	0.10298971
194	0xbd1ea27f	-0.038729187
195	0xbd9a5937	-0.07536548
196	0x3d3329a9	0.043740902
197	0xbbb8bd7a	-0.0056378217
198	0x3da55626	0.08073072
199	0x3d873f0b	0.06603821
200	0x3dc74083	0.097291015
201	0xbd9e0eab	-0.077176414
202	0x3d8aee42	0.06783725
203	0x3db53329	0.08847649
204	0xbd5506fa	-0.052008606
205	0x3dc676ce	0.09690629
206	0x3da1dd14	0.079034954
207	0xbcdb5f00	-0.026778698
208	0x3d3e6636	0.046484195
209	0xbd7800f0	-0.06054777
210	0xbdf06c91	-0.117394574
211	0x3d088458	0.033329338
212	0x3ccfcae4	0.0253653
213	0xbdb54201	-0.0885048
214	0x3d0d1a0a	0.03444866
215	0xbdeae6c1	-0.11469794
216	0x3daab634	0.08335534
217	0x3dd04753	0.10169854
218	0x3c0c6d48	0.008570977
219	0xbd8943b5	-0.06702367
220	0x3d81378a	0.06309421
221	0x3c7398ae	0.014867945
222	0x3c6beeb1	0.01440017
223	0x3cdbed5a	0.026846576
224	0x3d87d257	0.06631916
225	0xbd316800	-0.043312073
226	0xbcd346ec	-0.025790654
227	0x3ce89ec7	0.028396023
228	0xbadef987	-0.0017011621
229	0x3da8246e	0.082100734
230	0xbd7cf867	-0.061760332
231	0x39844513	0.00025228466
232	0x3cd7f690	0.026362687
233	0xbca992e7	-0.020699931
234	0x3d7457c6	0.05965402
235	0xbb21cbed	-0.00246882
236	0xbdcfffab	-0.10156187
237	0xbc196ca0	-0.009364277
238	0xbd698026	-0.057006977
239	0x3cb96cf3	0.022634959
240	0xbce24b3b	-0.027623763
241	0xbdeed65b	-0.11661979
242	0xbccacc23	-0.024755543
243	0xbcf5deb0	-0.030013412
244	0xbd1f26f1	-0.038855497
245	0x3daf3fcd	0.08557091
246	0xbcd743f0	-0.026277512
247	0x3d98a527	0.07453375
248	0x3d047366	0.032336615
249	0xbdca92f3	-0.098913096
250	0x3c9f8c48	0.019476071
251	0x3da937ab	0.08262571
252	0xbdc5b476	-0.09653561
253	0xbd9afa47	-0.07567268
254	0x3d9d158d	0.07670126
255	0x3d957c68	0.07299119

conv_block_2.0.bias f4 [10]
0	0xbe0817dc	-0.13290352
1	0x3e5b7326	0.21430644
2	0xbcf75532	-0.030191991
3	0xbe23a76b	-0.15981834
4	0xbe8857d6	-0.26629514
5	0xbd1d162e	-0.03835123
6	0x3e4fa6f4	0.20278531
7	0x3f025087	0.50904125
8	0x3f54d53f	0.8313789
9	0xbd92e893	-0.07173266

conv_block_2.2.weight f4 [10, 10, 3, 3]
0	0xbdc10707	-0.094251685
1	0xbdbb2019	-0.091369815
2	0xbc6cbb36	-0.014448931
3	0xbac0f2b9	-0.0014720774
4	0xbd13fcbd	-0.036129702
5	0x3c29a053	0.010353166
6	0xbb952c57	-0.004552405
7	0xbdf94bec	-0.12172684
8	0x3d1dfb6e	0.03856986
9	0xbe482693	-0.19545965
10	0xbeb24888	-0.34820962
11	0xbe187b08	-0.14890683
12	0xbd2600e0	-0.04052818
13	0xbe2a5092	-0.16632298
14	0xbee4f5a3	-0.44718656
15	0x3ed29b3d	0.41134062
16	0x3e9e2958	0.30890918
17	0xbf339210	-0.7014475
18	0x3d870915	0.06593529
19	0x3b40c346	0.0029413267
20	0x3da87689	0.08225734
21	0xbd84ed03	-0.06490519
22	0x3d81d598	0.06339568
23	0x3c2ab97a	0.010420198
24	0x3cbb212b	0.022842964
25	0x3d8abcd9	0.06774301
26	0xbdd42598	-0.10358733
27	0xbde6cb2d	-0.112692215
28	0x3e219666	0.15780029
29	0xbe1eacf5	-0.15495665
30	0xbdcf5eae	-0.101254806
31	0x3d0972be	0.033556692
32	0xbdb9797d	-0.09056375
33	0xbcd621ef	-0.026139228
34	0x3d45c9f7	0.04828831
35	0x3c15d393	0.0091446815
36	0xbe406589	-0.18788733
37	0xbe1705d8	-0.14748323
38	0xbd71c6a4	-0.05902733
39	0x3c959f3d	0.018264407
40	0xbda8f217	-0.082493
41	0xbe125004	-0.14288336
42	0xbc8a1f2d	-0.016860569
43	0xbe115ed3	-0.14196329
44	0xbe8fb387	-0.28066656
45	0xbe3ed582	-0.18636134
46	0xbdb13576	-0.08652775
47	0x3d99ccf4	0.07509795
48	0xbd778a8d	-0.060434867
49	0xbce717fd	-0.02820968
50	0x3d86d74c	0.06584033
51	0xbc6bfbdf	-0.0144033125
52	0xbdaf8b14	-0.08571449
53	0xbd918ee5	-0.07107333
54	0xbdd57395	-0.10422436
55	0x3e2b58de	0.16733119
56	0xbea278e8	-0.3173287
57	0xbedfae04	-0.4368745
58	0x3c57ff02	0.013183357
59	0x3e8e9f52	0.27855927
60	0xbeadfac9	-0.33980396
61	0x3e161610	0.14656854
62	0x3e9bf8bf	0.30463216
63	0x3eb845d3	0.35990772
64	0x3c9fc010	0.019500762
65	0xbd346f31	-0.044051353
66	0xbd837853	-0.064194344
67	0x3c975a08	0.018475547
68	0x3c505d56	0.0127175655
69	0xbd74e1e9	-0.059785757
70	0xba76d642	-0.0009416082
71	0xbe4e2c72	-0.20134142
72	0x3eaa4b6d	0.3326067
73	0xbe5e522a	-0.2171103
74	0x3d37fc97	0.044918623
75	0x3dd88454	0.105721146
76	0xbeb477f6	-0.35247773
77	0x3e6914d1	0.22761847
78	0xbe801e80	-0.2502327
79	0xbef09d3e	-0.46994966
80	0xbe7c1c9f	-0.24620293
81	0xbd5b3ee5	-0.053526778
82	0x3d2a9326	0.041644238
83	0xbd5f1452	-0.05446274
84	0x3d42a79a	0.04752312
85	0xbd8a56d4	-0.067548424
86	0xbd56a618	-0.052404493
87	0x3d82bf4a	0.06384142
88	0xbb948aca	-0.0045331465
89	0xbd458e21	-0.048231248
90	0x3d273ff8	0.04083249
91	0x3d8d075e	0.06886171
92	0x3c02781b	0.007963206
93	0xbd9dbf83	-0.077025436
94	0x3dabe2a3	0.08392837
95	0xbae8ba21	-0.0017755666
96	0x3e247f1b	0.16064112
97	0x3d6b368d	0.05742507
98	0x3d5897ea	0.05287925
99	0x3e90121b	0.28138813
100	0x3e9f4089	0.31103924
101	0xbed44dcf	-0.41465613
102	0xbd9a0dab	-0.07522138
103	0xbbea8a56	-0.007157604
104	0x3ec47f3c	0.38378322
105	0xbe5fab63	-0.21842723
106	0xbf38c6fb	-0.7217862
107	0x3e71727d	0.2357883
108	0x3cd012e8	0.02539964
109	0x3c85430a	0.016267318
110	0x3d985bc5	0.07439379
111	0x3db50fd3	0.08840909
112	0xbd82c8ca	-0.06385954
113	0xbd354386	-0.04425385
114	0xbd013bd9	-0.031551216
115	0xbdb63784	-0.088973075
116	0xbcf4c178	-0.02987741
117	0xbd8af503	-0.067850135
118	0x3dcbe953	0.099566124
119	0x3d58452d	0.052800346
120	0x3cc128d9	0.023579048
121	0xbdb7c749	-0.089735575
122	0xbd80b1a8	-0.06283885
123	0x3dbd1da6	0.092341706
124	0x3be404f5	0.0069585987
125	0x3d3337ee	0.04375451
126	0xbd097bef	-0.033565458
127	0x3d842df5	0.06454078
128	0x3db0d534	0.08634415
129	0x3be48334	0.0069736484
130	0xbd408f5e	-0.047011726
131	0x3d76e890	0.060280383
132	0x3dee6025	0.11639432
133	0xbd385c1a	-0.04500971
134	0xbdb0aa11	-0.086261876
135	0xbc356c08	-0.01107312
136	0x3dbefd98	0.09325713
137	0x3d43ed70	0.04783386
138	0x3c77a097	0.015113971
139	0xbc5a76af	-0.01333396
140	0x3d9b23c0	0.07575178
141	0x3e8a8ff0	0.2706294
142	0x3e22f7ae	0.15914795
143	0x3d58a7b7	0.05289432
144	0xbd33f8a0	-0.04393828
145	0xbd89d475	-0.06729976
146	0x3e71fdcc	0.23631972
147	0xbe70dd0d	-0.23521824
148	0xbd5a5dbb	-0.053312045
149	0x3e0ab7a9	0.13546623
150	0x3e0518eb	0.12997787
151	0x3e091e42	0.13390449
152	0xbc4e6f9f	-0.012599855
153	0x3cd16f68	0.025565818
154	0xbde000be	-0.109376416
155	0x3de7e618	0.11323184
156	0x3dba68e1	0.09102035
157	0xbece76fb	-0.4032515
158	0xbc105230	-0.0088086575
159	0x3e8260f0	0.25464582
160	0xbf1accc0	-0.60468674
161	0x3e5c2203	0.2149735
162	0xbe06399d	-0.13107915
163	0xbe59c5da	-0.2126688
164	0xbe62ae00	-0.22136688
165	0x3e690fd3	0.22759943
166	0x3d6b9240	0.05751252
167	0xbecba740	-0.3977604
168	0x3d8e67de	0.06953405
169	0x3dfebd1c	0.124384135
170	0xbdcc89d7	-0.09987228
171	0xbcb5524d	-0.02213397
172	0x3d8b001e	0.06787132
173	0x3daa8802	0.08326723
174	0xbd6dc415	-0.058048327
175	0xbd883508	-0.0665074
176	0x3d1ff094	0.039047793
177	0xbb06692c	-0.0020509465
178	0xbcb61d03	-0.02223063
179	0xbdb9f83a	-0.090805486
180	0x3e3883e9	0.1801907
181	0x3ca64570	0.020296782
182	0xbda64191	-0.081179745
183	0xbd88f69a	-0.066876605
184	0x3c41393a	0.011793429
185	0xbe1b2d48	-0.15153992
186	0xbbcca409	-0.0062451405
187	0x3e26832f	0.1626098
188	0xbcb6aee8	-0.022300199
189	0xbf1e5595	-0.6184934
190	0x3e26e029	0.16296448
191	0xbf10175e	-0.56285655
192	0xbf009eaa	-0.502421
193	0x3f1d8a44	0.615391
194	0xbddfd364	-0.109289914
195	0xbe0b197a	-0.13583937
196	0xbcc54f1c	-0.024085574
197	0x3eb0ff8e	0.34569973
198	0x3bc978b9	0.0061484245
199	0xbb15ff13	-0.0022887632
200	0xbcc1c6e0	-0.023654401
201	0x3bed5ce0	0.0072437376
202	0x3d8f2637	0.06989711
203	0x3d69b7d6	0.057060085
204	0x3ca1ed0a	0.01976635
205	0xbd6cce0e	-0.057813697
206	0x3d4cea09	0.05002788
207	0xbdb311f8	-0.08743662
208	0x3dd9ce46	0.10635047
209	0x3d39f363	0.045398127
210	0x3d63790e	0.05553537
211	0x3d926c73	0.07149591
212	0xbe02878e	-0.12747023
213	0x3d5604ca	0.05225066
214	0x3bec6e5b	0.007215304
215	0xbd5e140e	-0.054218344
216	0x3db0c7a7	0.08631831
217	0xbc81173e	-0.015758153
218	0xbd99affe	-0.07504271
219	0xbd492e76	-0.049116574
220	0x3dffdad7	0.12492912
221	0xbde5e26b	-0.112248264
222	0x3daa450c	0.08313951
223	0x3d939598	0.07206267
224	0xbc824a9f	-0.015904723
225	0x3e52b80a	0.20578018
226	0x3d7c2620	0.061559796
227	0xbe8eb26e	-0.27870506
228	0x3e65700f	0.22406028
229	0x3d94f93f	0.072741024
230	0xbe10722d	-0.14106055
231	0x3d1c42e8	0.038149744
232	0x3d4084d2	0.047001667
233	0xbe3e5603	-0.18587498
234	0xbebc40a9	-0.36768082
235	0xbdf122c1	-0.11774207
236	0x3e80a47d	0.25125495
237	0xbe362579	-0.17787732
238	0x3de16f74	0.11007586
239	0xbdc0d180	-0.09414959
240	0xbd8d5e3c	-0.069027394
241	0x3e420f85	0.18951233
242	0x3dc43d68	0.09582025
243	0xbec0bb8b	-0.37643084
244	0x3f156178	0.5835185
245	0x3d8ec7f7	0.06971734
246	0xbe8499b1	-0.25898507
247	0x3e27ecf9	0.16398992
248	0x3d18e0d9	0.037323806
249	0x3e07cf78	0.13262737
250	0xbecd1c20	-0.4006052
251	0xbe1682d9	-0.14698352
252	0xbe700d96	-0.23442683
253	0xbe9e7111	-0.30945638
254	0x3e013778	0.12618816
255	0x3c31c112	0.010849254

conv_block_2.2.bias f4 [10]
0	0x3e800857	0.25006363
1	0xbe8f1601	-0.27946475
2	0x3e83c32a	0.25734836
3	0x3dc4916b	0.09598049
4	0xbdc1344c	-0.09433803
5	0x3e6ea00a	0.23303238
6	0x3dec58cd	0.11540375
7	0xbd9853c0	-0.07437849
8	0xbce23abb	-0.027615895
9	0xbdaf1d53	-0.08550515

classifier.1.weight f4 [10, 490]
0	0xbbec8d4b	-0.007218992
1	0xbd293d83	-0.041318428
2	0x3dbe0d19	0.09279842
3	0xbe3ed6e0	-0.18636656
4	0x3ba8285d	0.005131765
5	0xbcf4ab75	-0.029866913
6	0x3db6db13	0.08928504
7	0x3d93e5cf	0.07221567
8	0x3e66f571	0.22554566
9	0x3d2a3853	0.04155762
10	0xbe6c0a1d	-0.23050733
11	0x3ddc1190	0.10745537
12	0x3dcb9ff5	0.09942619
13	0x3e114f62	0.14190438
14	0x3d2fe9d7	0.042947616
15	0x3e06e552	0.13173416
16	0x3e1b61f0	0.15174079
17	0xbd9d8ec7	-0.07693248
18	0x3dd19cdb	0.10234996
19	0x3d574186	0.052552722
20	0xbdd40dd2	-0.103541985
21	0xbd27d518	-0.040974706
22	0x3e2ccde1	0.16875412
23	0xbbc5c923	-0.0060359403
24	0xbccb1b31	-0.02479324
25	0x3d5348bd	0.05158304
26	0xbbd28a26	-0.00642516
27	0xbdaff4ad	-0.0859159
28	0xbdbaaaf9	-0.09114642
29	0x3c8a3c65	0.016874501
30	0xbc9ade24	-0.018904753
31	0xbd0ecc84	-0.03486301
32	0x3e34e631	0.17665936
33	0xbdddbda1	-0.108271845
34	0xbd168750	-0.036750138
35	0x3d018324	0.031619206
36	0xbd9f3a54	-0.07774797
37	0xbcea3a08	-0.028592125
38	0xbd9f1742	-0.07768108
39	0xbce4ca26	-0.027928423
40	0x3e30590d	0.1722147
41	0xbd90c483	-0.07068732
42	0x3d6b9aea	0.057520784
43	0xbe1432b0	-0.14472461
44	0xbe5f1309	-0.21784605
45	0xbd2817f2	-0.04103846
46	0xbd133d20	-0.035946965
47	0x3e8e8509	0.27835873
48	0xbd887995	-0.06663815
49	0x3d86f5fb	0.06589886
50	0x3da831cc	0.08212623
51	0xbded6a92	-0.11592592
52	0xbe205963	-0.15659098
53	0x3d6ba6ee	0.057532243
54	0xbdbd559b	-0.092448436
55	0x3db77f03	0.089597724
56	0x3d16e02d	0.036834884
57	0x3c47d773	0.012197363
58	0xbe1c279c	-0.15249485
59	0x3d25d8e1	0.040490035
60	0xbdaebc64	-0.085320264
61	0x3dad6f45	0.084684886
62	0xbc4fad16	-0.012675544
63	0x3dcad549	0.09903962
64	0x3e767adc	0.24070305
65	0xbd3ff5da	-0.04686532
66	0x3d15b74f	0.03655177
67	0xbc97823f	-0.018494723
68	0x3e8a1009	0.2696536
69	0x3d41e358	0.047335953
70	0x3d9418a0	0.07231259
71	0x3bd035ba	0.006354061
72	0xbda2ff2c	-0.079588264
73	0xbd83e4cb	-0.06440123
74	0xbd321edc	-0.04348646
75	0x3e97ba93	0.29634532
76	0xbcb01e80	-0.021498919
77	0x3c256e5f	0.010097115
78	0xbdb7f316	-0.08981912
79	0xbdf31105	-0.118684806
80	0xbd95b376	-0.0730962
81	0x3d671722	0.056418546
82	0x3e466810	0.19375634
83	0xbdbe6329	-0.09296257
84	0xbe215336	-0.15754399
85	0xbcd6026c	-0.026124202
86	0xbd88aa30	-0.06673086
87	0xbd5880e9	-0.052857313
88	0xbcd24a54	-0.025670208
89	0x3d224bfd	0.03962325
90	0x3c1c0f0a	0.00952507
91	0xbdba4203	-0.09094622
92	0x3b5161e4	0.0031949216
93	0x3e0a4167	0.13501512
94	0xbd1ea57a	-0.03873203
95	0xbdec0373	-0.115240954
96	0x3ca29540	0.019846559
97	0x3cf7d7a9	0.030254202
98	0x3da22197	0.07916563
99	0x3c44d8b2	0.012014555
100	0x3e12c431	0.14332654
101	0x3d36b027	0.044601586
102	0x3d8cac18	0.06868762
103	0x3d90ccad	0.07070289
104	0x3cc391e8	0.023873284
105	0x3e80945b	0.25113186
106	0x3cf8f37b	0.030389538
107	0xbc022bfd	-0.007945058
108	0x3d63dbf2	0.055629678
109	0x3d897ec0	0.06713629
110	0x3dd00989	0.10158069
111	0x3d470bfd	0.048595417
112	0x3d76a718	0.060217947
113	0x3d880f5d	0.06643555
114	0x3e88896e	0.2666735
115	0xbc8ef481	-0.017450573
116	0xbb93dfa1	-0.0045127426
117	0xbdd0424a	-0.10168894
118	0xbe081bfc	-0.13291925
119	0xbd443595	-0.047902662
120	0xbe081830	-0.13290477
121	0x3e0a6715	0.13515885
122	0xbe1f6d8a	-0.1556913
123	0xbdd3cc75	-0.103417315
124	0x3d8c3272	0.06845559
125	0xbe2cb173	-0.16864567
126	0xbe5ee332	-0.21766356
127	0x3c2cae1a	0.010539556
128	0x3db0cbfc	0.08632657
129	0xbd375517	-0.044758882
130	0xbe14bd92	-0.1452544
131	0x3d745506	0.059651397
132	0x3d4eef3b	0.050521117
133	0xbdb70420	-0.08936334
134	0x3de571e4	0.112033635
135	0x3d69c740	0.057074785
136	0xbdeab8ed	-0.11461053
137	0xbddd3469	-0.10801012
138	0xbda98455	-0.082771935
139	0x3ce466fb	0.027881136
140	0x3cd514b4	0.026010849
141	0x3d7d131e	0.06178581
142	0x3d4ca4ce	0.049961857
143	0xbdb2762c	-0.08713946
144	0xbdac11f3	-0.08401861
145	0xbe0f257e	-0.13979146
146	0xbe077753	-0.13229112
147	0x3e7c84c4	0.24660021
148	0xbd40ccbc	-0.04707025
149	0xbd4a4d68	-0.049390227
150	0xbd905661	-0.070477255
151	0x3dad14e2	0.08451249
152	0x3d4f391b	0.05059157
153	0xbaf6df37	-0.0018834834
154	0xbdcb5bd4	-0.09929624
155	0xbdab59c1	-0.083667286
156	0xbe14b691	-0.14522769
157	0xbce2f9e5	-0.02770705
158	0xbad364b1	-0.0016128031
159	0xbdfd440f	-0.12366497
160	0xbda9cd98	-0.08291167
161	0xbd9b922f	-0.07596242
162	0xb8ec508f	-0.00011268362
163	0xbdd853f5	-0.105628885
164	0x3d4a824a	0.04944066
165	0xbd546cb0	-0.051861465
166	0xbcbac639	-0.022799598
167	0x3de716ba	0.112836316
168	0x3d4b5aaa	0.04964701
169	0x3e086279	0.13318814
170	0xbc623945	-0.013807599
171	0x3c65f7bd	0.014036116
172	0x3d2aa4c3	0.041661035
173	0x3d50177a	0.05080364
174	0x3e31a049	0.173463
175	0xbd30f247	-0.043199804
176	0x3e3347ac	0.1750781
177	0xbd76a341	-0.060214285
178	0xbdc6253a	-0.09675069
179	0xbd587ba5	-0.05285229
180	0xbd85f6bf	-0.06541204
181	0x3e185a9c	0.14878315
182	0xbdfbc877	-0.12294095
183	0x3e51d123	0.20489936
184	0xbdd0e5a1	-0.10200048
185	0xbde22781	-0.11042691
186	0xbc22587d	-0.009908793
187	0xbccb1ce9	-0.024794059
188	0x3de0426b	0.10950168
189	0xbc630f99	-0.013858699
190	0xbc99a464	-0.018755145
191	0xbe184712	-0.14870861
192	0xbc6c9d88	-0.014441855
193	0xbdc90892	-0.09816088
194	0xbd44f90b	-0.04808907
195	0x3d0c477e	0.034247868
196	0x3b3808f1	0.0028081501
197	0x3baf1e3a	0.0053441795
198	0xbc7c0b80	-0.015383601
199	0xbd0361f1	-0.032075826
200	0x3d079ded	0.033109594
201	0x3cb5f247	0.022210253
202	0x3cdb2bcd	0.026754284
203	0xbc0e7e52	-0.008697109
204	0x3c25f851	0.010130004
205	0x3e0be361	0.13660957
206	0x3e0e0eb4	0.13872796
207	0x3dc702bd	0.09717319
208	0xbcf19233	-0.029488659
209	0x3bc4ac00	0.0060019493
210	0x3bcba3b2	0.0062145824
211	0x3d6bece6	0.05759897
212	0x3c8f0731	0.017459484
213	0x3e051fad	0.13000365
214	0x3d513727	0.051077988
215	0x3e6534d7	0.22383438
216	0x3dea991b	0.11454984
217	0x3da337b5	0.0796961
218	0x3d735ed6	0.059416614
219	0xbe2abff1	-0.16674782
220	0xbbda8ac2	-0.0066693733
221	0x3c860300	0.016358852
222	0x3e5453da	0.20735112
223	0x3c70df0b	0.014701615
224	0x3d321de2	0.04348553
225	0xbc1905cd	-0.009339762
226	0xbd979a5e	-0.0740249
227	0x3cc95e54	0.024581112
228	0xbd0425ca	-0.0322626
229	0x3caad6da	0.020854402
230	0xbd30b7d0	-0.043144047
231	0xbc5f6e05	-0.013637071
232	0xbd0911fa	-0.03346441
233	0x3c3a0a64	0.011355016
234	0x3cad6706	0.02116729
235	0x3d2212f2	0.03956885
236	0x3a85f382	0.0010219666
237	0xbdaaae1e	-0.083339915
238	0x3ba9e514	0.005184779
239	0xbcd1d705	-0.025615225
240	0x3c2601f3	0.010132301
241	0xbd1266d2	-0.03574259
242	0xbd9ece7e	-0.07754229
243	0xbd5fc85c	-0.054634437
244	0xbd35ba2b	-0.044366997
245	0x3c599c7d	0.013281939
246	0x3dbed71b	0.09318372
247	0xbc8e84b7	-0.017397268
248	0x3df4c0ed	0.1195086
249	0x3db2e3a2	0.08734824
250	0x3e696bbc	0.22795004
251	0x3d863c3a	0.06554456
252	0xbc9aabe5	-0.018880794
253	0xbd095b9a	-0.033534624
254	0x3dbd67ee	0.09248339
255	0x3d6537aa	0.05596129

classifier.1.bias f4 [10]
0	0x3d8a2143	0.067446254
1	0xbe1fc620	-0.15602922
2	0x3eda1118	0.42591166
3	0xba781bb7	-0.0009464579
4	0xbecb24f2	-0.39676625
5	0xbe3e0a48	-0.1855861
6	0x3e1b0521	0.15138675
7	0x3c4c254a	0.012460062
8	0x3e1effc1	0.1552725
9	0xbde139fd	-0.109973885
